exercise_notebooks_my_solutions/3. Convolutional Neural Networks/cifar-cnn/model_cifar.pt (torch_old, 104839 bytes, 10 tensors)

conv1.weight f4 [6, 3, 3, 3]
0	0x3e952706	0.29131335
1	0x3e435bda	0.19078007
2	0x3edc6a39	0.4304979
3	0xbccd533f	-0.025064109
4	0xbe042028	-0.12902892
5	0x3df4b2a9	0.11948139
6	0x3a39a376	0.00070815475
7	0xbe788e65	-0.24273069
8	0xbe488e0d	-0.19585438
9	0x3e351f96	0.1768783
10	0x3dd20c03	0.10256197
11	0x3ded1bc9	0.11577565
12	0xbe71fa6c	-0.23630685
13	0xbdb8829d	-0.090092875
14	0xbe8c11d7	-0.2735736
15	0xbebaa732	-0.36455685
16	0xbe0e41cc	-0.13892287
17	0xbe58f21f	-0.21186112
18	0x3e45492d	0.19266196
19	0x3e044d80	0.12920189
20	0x3dd7da4e	0.10539685
21	0xbc72c82b	-0.014818232
22	0xbe3bd50f	-0.18342994
23	0xbbbeff9d	-0.0058288113
24	0x3d0307c2	0.03198982
25	0x3d374ffd	0.044754017
26	0x3d3bac40	0.045818567
27	0xbe7702db	-0.24122183
28	0xbe9d297c	-0.30695713
29	0x3ed68dd5	0.41905084
30	0x3e04085f	0.12893818
31	0xbe6e3aa6	-0.2326456
32	0x3e568d44	0.20952326
33	0x3dc17dd7	0.0944783
34	0xbd2e10b6	-0.042496406
35	0xbe08748c	-0.13325709
36	0x3dbca774	0.09211627
37	0xbe89c782	-0.26910025
38	0x3eeec44f	0.46634147
39	0x3e16c384	0.14723021
40	0xbeffcd79	-0.4996145
41	0x3e2f6977	0.17130075
42	0x3e8b00b8	0.27148986
43	0x3d141a86	0.036158107
44	0xbe2fcaf0	-0.17167258
45	0xbe435218	-0.19074285
46	0xbec38de3	-0.38194188
47	0x3f015e7a	0.50534785
48	0x3ea110e5	0.31458202
49	0xbf0718e9	-0.52772385
50	0x3e22f4dd	0.1591372
51	0x3edac338	0.42727065
52	0xbe0dd491	-0.13850619
53	0xbe14c5ca	-0.14528576
54	0x3ec7cbc2	0.39022642
55	0x3ebd4d8d	0.3697323
56	0x3e9ffd05	0.31247726
57	0x3c437d69	0.011931756
58	0x3e6520b2	0.22375754
59	0xbdc784de	-0.09742139
60	0xbe287ada	-0.16453114
61	0xbe08cd1d	-0.13359495
62	0xbe56eb17	-0.20988117
63	0x3e6a9062	0.2290664
64	0x3d207e9a	0.039183237
65	0x3eace9d9	0.33772162
66	0xbdb1d9a6	-0.08684091
67	0xbe5f6ab0	-0.21818042
68	0xbe0bd3ae	-0.13654968
69	0xbe6f3e70	-0.23363662
70	0xbe60dc56	-0.21959051
71	0xbed02d20	-0.40659428
72	0x3e46b7a4	0.19405991
73	0x3d9e6229	0.07733566
74	0x3db51cda	0.088433936
75	0xbda1f8b2	-0.07908763
76	0xbe463d47	-0.19359313
77	0x3e236619	0.15956916
78	0xbe803148	-0.250376
79	0x3d31346f	0.043262895
80	0xbe4ba4a4	-0.19887024
81	0xbe1ef7b4	-0.15524179
82	0xbd46d703	-0.048544895
83	0xbe284387	-0.1643201
84	0xbdbc7cd9	-0.092035
85	0xbc52cb46	-0.012865847
86	0xbdf1d2de	-0.11807798
87	0xbe0d786b	-0.13815467
88	0xbea17519	-0.3153465
89	0xbea00bd0	-0.31259012
90	0xbe7fa55e	-0.24965426
91	0xbd8c6f98	-0.06857222
92	0xbe5512c3	-0.20807938
93	0x3e844f4f	0.25841758
94	0x3e0879a3	0.1332765
95	0x3e61db95	0.2205642
96	0xbe401b60	-0.18760443
97	0x3dd12d53	0.10213723
98	0xbe5b8a84	-0.21439558
99	0x3dd5c246	0.10437445
100	0xbddd1d9f	-0.107966654
101	0xbd0503c4	-0.032474294
102	0x3e6dc292	0.23218754
103	0x3e66b9e7	0.22531854
104	0x3ec1527f	0.37758252
105	0x3e3e841a	0.1860508
106	0x3de20e5d	0.11037896
107	0x3e92385b	0.2855862
108	0xbe00c1a8	-0.12573874
109	0xbcb69346	-0.022287022
110	0xbddebdc8	-0.10876042
111	0xbe8f7b44	-0.28023732
112	0xbebd3301	-0.36952975
113	0xbdf21ff1	-0.118224986
114	0x3d48f0ad	0.04905765
115	0x3cfd4bfb	0.03092002
116	0xbe1ccdfb	-0.1531295
117	0x3dcb1a93	0.09917178
118	0x3e0558bb	0.13022129
119	0xbd4e7b6f	-0.050410684
120	0x3bb0097d	0.005372225
121	0xbd12b0ab	-0.035813015
122	0xbc94d3ae	-0.018167343
123	0xbdae53ea	-0.08512099
124	0x3daa7547	0.0832315
125	0x3d1f2040	0.038849115
126	0x3e9c4f4b	0.30529246
127	0x3e13b300	0.14423752
128	0x3ea9bdbf	0.33152577
129	0x3dcd0dcc	0.10012397
130	0x3e2fc646	0.17165479
131	0xbcaf8b7d	-0.021428818
132	0x3dd299aa	0.10283215
133	0x3d903561	0.07041431
134	0x3d897aca	0.06712873
135	0x3db89ed2	0.090146676
136	0x3dedf6ee	0.11619364
137	0x3d67ccea	0.056591906
138	0x3e9191e7	0.28431627
139	0x3e6d808f	0.23193572
140	0x3d1a5a2c	0.03768365
141	0x3dc516ab	0.09623464
142	0x3d005bba	0.031337477
143	0x3cf47568	0.02984114
144	0xbe1ccb10	-0.15311837
145	0x3daddc9f	0.08489346
146	0xbe859915	-0.26093355
147	0x3dfc253c	0.123117894
148	0x3da14884	0.078751594
149	0x3d0bfdf0	0.03417772
150	0x3e0c9c60	0.13731527
151	0xbcff3911	-0.031155141
152	0x3b33dee5	0.0027446088
153	0x3e84a180	0.25904465
154	0x3ecd7f73	0.401363
155	0x3e3fce93	0.18731146
156	0x3e422fd4	0.18963557
157	0x3d420e6d	0.04737704
158	0x3ab11fbd	0.0013513487
159	0x3e0ef4a8	0.13960516
160	0x3bee7aea	0.007277836
161	0xbd9a022b	-0.07519945

conv1.bias f4 [6]
0	0xbe0471e8	-0.12934077
1	0xbb47caf6	-0.0030485964
2	0xbddee89f	-0.10884213
3	0x3e7638ea	0.24045148
4	0x3e146937	0.14493261
5	0x3d827850	0.06370604

conv2.weight f4 [16, 6, 3, 3]
0	0x3dadf09d	0.08493159
1	0xbd373741	-0.04473043
2	0xbceaaffc	-0.028648369
3	0xbb0e5070	-0.0021715425
4	0xbdeb5bf3	-0.11492147
5	0xbd9811ef	-0.074252956
6	0xbdae3a01	-0.08507157
7	0xbddbacd4	-0.10726324
8	0xbe0fb8e7	-0.14035378
9	0xbdb57bdb	-0.08861514
10	0xbe2b5a42	-0.1673365
11	0xbdbb962d	-0.09159503
12	0x3bda2671	0.0066574146
13	0xbd620990	-0.0551849
14	0x38f215f5	0.00011543549
15	0xbdd44c61	-0.103661306
16	0xbdeb02a4	-0.11475113
17	0xbe052298	-0.13001478
18	0xbccfccd7	-0.02536623
19	0xbd99b80b	-0.075058065
20	0x3d117d72	0.035520025
21	0x3d2d4ec8	0.04231146
22	0xbd3e986e	-0.046532087
23	0xbdd54b83	-0.10414793
24	0xbd903704	-0.070417434
25	0x3d45053b	0.04810069
26	0xbda9d1c8	-0.08291966
27	0x3e478db9	0.19487657
28	0x3d1722cf	0.03689843
29	0x3e65732c	0.22407216
30	0x3d3f8350	0.04675609
31	0x3c467c77	0.012114636
32	0x3d3026a1	0.04300559
33	0x3d34731e	0.044055097
34	0x3e227dff	0.15868376
35	0x3db44f8e	0.08804236
36	0xbdaf9672	-0.08573617
37	0x3d038e13	0.032117914
38	0x3e0f1f82	0.13976863
39	0xbd84e381	-0.064887054
40	0x3e3067bf	0.17227076
41	0x3e27339e	0.16328284
42	0x3d2b2a5d	0.041788448
43	0x3e3c4ee0	0.18389463
44	0x3cc5827a	0.024110068
45	0xbdd5d2b8	-0.10440582
46	0x3def331c	0.1167967
47	0x3deff0cf	0.117158525
48	0x3d51fcf4	0.051266626
49	0x3e5b32f6	0.21406159
50	0x3db26003	0.08709719
51	0xbdf10e7f	-0.11770343
52	0x3c8031a8	0.015648678
53	0x3cd69bdf	0.026197372
54	0xbddd6fa9	-0.10812313
55	0x3da9f73f	0.082991116
56	0xbd1073b1	-0.035266582
57	0xbda8316a	-0.0821255
58	0x3d56d3ab	0.052447956
59	0x3d8e7395	0.06955639
60	0xbcf66dba	-0.030081619
61	0xbd9df21c	-0.07712194
62	0xbd3a20f4	-0.045441583
63	0xbe4af6c7	-0.198207
64	0xbe6cfc2d	-0.23143072
65	0xbdba96fa	-0.09110828
66	0xbddf8172	-0.109133616
67	0xbe2eceab	-0.17071025
68	0xbe620836	-0.22073445
69	0xbe4bcacc	-0.1990158
70	0xbe7e02aa	-0.24805704
71	0xbe604ba7	-0.21903859
72	0xbd5d7f11	-0.054076258
73	0x3e214873	0.15750293
74	0x3d9ad216	0.07559602
75	0x3d1f64a4	0.038914338
76	0x3da0fb04	0.078603774
77	0x3d4bb7f5	0.049735982
78	0xbbb77e99	-0.0055998084
79	0x3e18a2d7	0.14905868
80	0x3d9844a5	0.07434968
81	0x3e729252	0.2368863
82	0x3e24acbe	0.16081521
83	0x3e1cc11d	0.15308042
84	0x3ddd501c	0.10806295
85	0x3e0059c7	0.12534247
86	0xbd589d6b	-0.0528845
87	0xbd92c6fd	-0.0716686
88	0xbe092720	-0.13393831
89	0x3d556fca	0.052108563
90	0x3de6681b	0.11250325
91	0x3e1e1201	0.15436555
92	0x3c8d82ad	0.017274225
93	0x3d3a3265	0.045458216
94	0xbde9138d	-0.11380682
95	0x3e1043f1	0.14088418
96	0x3e158e7e	0.14605138
97	0x3dd5a3e6	0.10431652
98	0x3e25eb37	0.16203009
99	0x3e5dfaad	0.21677656
100	0x3d5318bc	0.05153726
101	0x3e268483	0.16261487
102	0xbd635fc3	-0.055511247
103	0x3dfa5f64	0.122252256
104	0x3db1062a	0.08643754
105	0x39d95e82	0.0004145988
106	0xbd22cc02	-0.03974534
107	0xbe367bcb	-0.17820661
108	0x3cd49d68	0.025953963
109	0xbce38290	-0.027772218
110	0xbd31022b	-0.04321496
111	0xbe12bb2b	-0.14329211
112	0xbd43000b	-0.047607463
113	0x3cbbc1d0	0.022919565
114	0x3c9455e0	0.018107355
115	0xbdb87fdf	-0.090087645
116	0xbdb304a3	-0.08741119
117	0x3e14122f	0.14460061
118	0x3e3b2a01	0.18277742
119	0x3de45e5f	0.11150812
120	0x3ebb87dd	0.36627093
121	0xbd574604	-0.052557006
122	0x3d923085	0.071381606
123	0x3e3fa3b8	0.18714797
124	0x3ea22f50	0.31676722
125	0x3e7be99f	0.24600838
126	0x3d4c7be9	0.049922857
127	0x3d8a66e9	0.0675791
128	0x3c8e492d	0.017368877
129	0xbdf3e42c	-0.11908755
130	0xbca1f5cf	-0.019770531
131	0x3cbc46d1	0.022982987
132	0xbc9284a1	-0.017885508
133	0xbdc1f598	-0.094706714
134	0xbc5ca94b	-0.013468097
135	0xbdf00b76	-0.11720936
136	0xbdb638f4	-0.08897582
137	0xbd9c28c8	-0.07624966
138	0xbe1044e0	-0.14088774
139	0xbe0687b8	-0.1313771
140	0x3c792b30	0.015208051
141	0xbe0677eb	-0.13131683
142	0xbdeabcea	-0.11461814
143	0xbd937f97	-0.0720207
144	0xbde73553	-0.11289468
145	0xbe518574	-0.20461065
146	0xbe2b076d	-0.16702051
147	0xbe16a8cf	-0.14712833
148	0x3b0d44ab	0.0021555822
149	0xbe1abb6b	-0.15110557
150	0xbdc239e3	-0.09483697
151	0xbd9cedff	-0.07662582
152	0x3d02c5f2	0.031927057
153	0xbe0b3f8a	-0.13598457
154	0xbd097e54	-0.03356774
155	0x3db0c212	0.08630766
156	0xbd837549	-0.06418855
157	0x3d9924ca	0.0747772
158	0xbc894c27	-0.016759945
159	0x3c990832	0.018680666
160	0xbd9845cb	-0.07435187
161	0x3d2415d2	0.040059872
162	0xbd8158b7	-0.06315749
163	0x3e1a91b4	0.15094644
164	0x3d8fd999	0.07023925
165	0x3cfaf77d	0.03063559
166	0xbd40a3cb	-0.047031205
167	0x3e1d4f38	0.15362251
168	0x3d683e11	0.056699816
169	0x3e091cb3	0.13389854
170	0xbd0fd275	-0.035112817
171	0x3e1d2858	0.15347421
172	0x3ca5cb55	0.020238558
173	0xbb7c0fe2	-0.0038461615
174	0x3c80f838	0.01574336
175	0x3d3e5da6	0.04647603
176	0x3e5a18f1	0.21298577
177	0x3dabf0de	0.08395551
178	0xbd976c49	-0.07393701
179	0x3ae883a0	0.0017739423
180	0x3e614eca	0.22002712
181	0x3dfebe83	0.12438681
182	0x3e566294	0.20936042
183	0xbd1a1c58	-0.037624687
184	0x3d56c3a2	0.052432664
185	0x3dd2cbff	0.102928154
186	0x3de42ee9	0.1114176
187	0x3e61a99c	0.22037357
188	0xbdbb8634	-0.091564566
189	0x3d8de0cb	0.069276415
190	0x3e017400	0.12641907
191	0x3e12bbab	0.14329402
192	0xbd85fe76	-0.06542675
193	0x3dbfa3e8	0.093574345
194	0xbd920f42	-0.071318164
195	0xbe005314	-0.12531692
196	0xbdc5405e	-0.09631418
197	0xbd8374f9	-0.06418795
198	0x3ddf2bb7	0.1089701
199	0x3e122197	0.14270626
200	0xbbae8cdd	-0.005326851
201	0x3ccd90f2	0.02509353
202	0x3d5c16d2	0.0537327
203	0xbca3cb4c	-0.0199944
204	0x3d22e60a	0.039770164
205	0xbdef0abb	-0.116719685
206	0xbd5d00d5	-0.05395587
207	0xbb9ae471	-0.0047269394
208	0xbdc300d8	-0.09521645
209	0x3d1198cf	0.03554612
210	0xbd9906f2	-0.07472028
211	0x3c8978eb	0.016781291
212	0x3d69d38b	0.05708651
213	0xbda11c3f	-0.07866716
214	0xbd474a71	-0.048654977
215	0x3e06acb9	0.13151826
216	0xbe0a3fdb	-0.13500921
217	0x3df2e57f	0.11860179
218	0x3d8bc3ac	0.06824431
219	0x3cd6fbf5	0.02624319
220	0x3dd6b295	0.104832806
221	0x3dec610a	0.11541946
222	0x3e2e8a1f	0.17044877
223	0xbd6fcfb3	-0.058547687
224	0xbe0deee1	-0.13860656
225	0x3e5adc1e	0.2137303
226	0xbd930697	-0.07178991
227	0x3e2f4177	0.17114817
228	0x3e85b7a2	0.26116663
229	0x3e133bb8	0.1437825
230	0x3cd3e26c	0.025864802
231	0x3e2649ba	0.16239062
232	0x3dfb9420	0.12284112
233	0x3e823034	0.254274
234	0xbdc57eb0	-0.09643304
235	0x3c21a19f	0.009865194
236	0x3c22f33a	0.009945685
237	0xbd7171ff	-0.058946606
238	0x3ce9b09a	0.028526593
239	0x3a9dc7e3	0.001203772
240	0x3d6032a4	0.054735795
241	0x3dad64b7	0.084664755
242	0xbe13bb86	-0.14427003
243	0xbcf6cef1	-0.030127974
244	0xbca444be	-0.02005231
245	0xbcd2c6e3	-0.025729602
246	0xbc02591b	-0.007955815
247	0xbc5cffa7	-0.013488687
248	0xbd65c1d6	-0.05609306
249	0xbc53ff9e	-0.012939362
250	0xbd0aa046	-0.033844255
251	0xbb16dfef	-0.0023021658
252	0xbe02a1b3	-0.12756996
253	0xbdcfe4b4	-0.101510435
254	0xbb7421f5	-0.0037251685
255	0x3d41c9d9	0.047311638

conv2.bias f4 [16]
0	0x3d8d84cd	0.06910095
1	0x3db7ba64	0.08971098
2	0x3e814d57	0.25254318
3	0xbe5fbca8	-0.2184931
4	0x3e160689	0.1465093
5	0xbe97779d	-0.29583445
6	0xbe00db27	-0.125836
7	0xbda1e13b	-0.079042874
8	0xbdc0adf8	-0.09408182
9	0x3dd51912	0.104051724
10	0xbd3a8f40	-0.04554677
11	0xbe33d1b6	-0.17560467
12	0xbe34538e	-0.17609999
13	0x3ec30534	0.38089907
14	0x3e654fcb	0.2239372
15	0xbd73938d	-0.059466887

conv3.weight f4 [16, 16, 3, 3]
0	0x3da61eb9	0.08111329
1	0xbd171539	-0.036885474
2	0x3c24bbe1	0.010054559
3	0x3d918800	0.07106018
4	0x3d330da0	0.043714166
5	0xbd825a37	-0.06364863
6	0x3dc69e8c	0.09698209
7	0x3d04947f	0.03236818
8	0x3d1a09c3	0.037606966
9	0x3e00363b	0.12520687
10	0x3d803fc8	0.06262165
11	0xbd53752a	-0.05162541
12	0xbc0a5ac0	-0.008444488
13	0xbd946806	-0.072464034
14	0xbd7e907c	-0.06214951
15	0xbcf79af9	-0.030225264
16	0xbd04ce5b	-0.03242336
17	0xbd63af3a	-0.05558703
18	0x3c1f43df	0.009720772
19	0x3db27eaa	0.087155655
20	0x3e19dba0	0.15025187
21	0x3d63c9dd	0.055612434
22	0x3de4043a	0.11133619
23	0x3dbbb9a8	0.091662705
24	0x3d95eefc	0.07320973
25	0x3e36394a	0.17795292
26	0x3d8b5484	0.068032295
27	0xbd21d659	-0.03951106
28	0xbdd006fe	-0.10157584
29	0xbdc0b8fe	-0.094102845
30	0xbdc94be1	-0.09828926
31	0xbdc50f26	-0.0962203
32	0xbd67d117	-0.056595888
33	0xbcb53e02	-0.022124294
34	0xbd9887bf	-0.074477665
35	0xbdb758a8	-0.08952457
36	0xbdb9d80d	-0.090744115
37	0x3d111294	0.035418108
38	0x3d0aad31	0.033856574
39	0xbd338258	-0.043825477
40	0xbcc3bd3a	-0.023893941
41	0x3e08c48e	0.1335623
42	0xbca0e086	-0.019638311
43	0x3d95adc3	0.07308533
44	0x3de540f0	0.111940265
45	0xbd9d90f9	-0.07693667
46	0xbc26015e	-0.010132162
47	0xbde046e1	-0.10951019
48	0xbced726f	-0.02898523
49	0xbe18c24d	-0.1491787
50	0xbd04e2d4	-0.032442883
51	0xbd92ddf0	-0.071712375
52	0xbce2e020	-0.027694762
53	0xbda2d6c9	-0.07951123
54	0x3d6a3058	0.05717501
55	0x3b00ce2b	0.0019654136
56	0xbd31799a	-0.04332886
57	0x3d8c1187	0.068392806
58	0xbdda7150	-0.10666144
59	0xbd983ac3	-0.07433083
60	0xbbb9b900	-0.0056678057
61	0xbc82453b	-0.015902152
62	0xbd98467e	-0.0743532
63	0x3d5f6cc2	0.05454708
64	0x3d629b36	0.055323802
65	0x3d3b55b1	0.04573602
66	0xbd4bdb7d	-0.049769867
67	0x3d45e51a	0.04831419
68	0x3ce3285b	0.027729204
69	0xbdb31f12	-0.087461606
70	0xbc25b3b3	-0.010113644
71	0x3d87f932	0.06639327
72	0x3dc9b1b8	0.0984835
73	0xbca6257e	-0.02028155
74	0xbdad0f64	-0.08450201
75	0x3d330bb3	0.04371233
76	0x3d0c8168	0.0343031
77	0xbd7698e9	-0.06020442
78	0x3da564b3	0.080758475
79	0x3d0c4de5	0.034253974
80	0x3d07891f	0.033089753
81	0x3d88d809	0.066818304
82	0xbc80b7f6	-0.01571272
83	0xbd8d06b0	-0.06886041
84	0xbd22eaa3	-0.03977455
85	0x3d911e1f	0.07085823
86	0xbd7aeca9	-0.061260853
87	0x3d09c99b	0.03363953
88	0x3d05f34d	0.032702733
89	0x3d3fc5ee	0.04681962
90	0xbd57de27	-0.052702095
91	0x3bafdfa8	0.005367238
92	0xbdaf9d99	-0.08574981
93	0xbd5258b9	-0.051354144
94	0xbbe7c3e4	-0.0070729125
95	0x3d401644	0.046896234
96	0x3d658154	0.05603154
97	0xbd2cce3c	-0.042188868
98	0x3dcb54eb	0.09928306
99	0xbd8b743e	-0.06809281
100	0xbd433189	-0.047654662
101	0xbdb72278	-0.08942121
102	0x3cb328d2	0.02187005
103	0xbd9bc725	-0.07606343
104	0xbd7bf358	-0.061511368
105	0xbdd830f7	-0.10556214
106	0xbdc920c1	-0.098207004
107	0xbdb2b001	-0.08724976
108	0xbbaf82c6	-0.0053561656
109	0xbe02042a	-0.12696901
110	0xbe035f93	-0.12829427
111	0xbd1e78f9	-0.038689587
112	0xbde53619	-0.11191959
113	0xbdb5c76d	-0.08875928
114	0xbce7ba3c	-0.028287046
115	0xbc745565	-0.014912938
116	0xbd6e5efb	-0.05819605
117	0x3dbe5ca3	0.09295013
118	0x3daa4111	0.08313192
119	0x3e012478	0.12611568
120	0x3d67c18e	0.056581073
121	0x3cff869c	0.031192116
122	0x3d8264db	0.06366893
123	0xbacd4fff	-0.00156641
124	0x3d735852	0.0594104
125	0x3d3a3ba2	0.045467027
126	0xbccd71cb	-0.025078675
127	0xbb81a2cf	-0.003956176
128	0x3c1bc633	0.009507704
129	0x3e05f684	0.1308232
130	0x3d16d711	0.036826197
131	0x3dfd9420	0.12381768
132	0x3d9cc20e	0.076542005
133	0x3d4b4bfd	0.049633015
134	0x3d231777	0.0398173
135	0x3db35832	0.08757056
136	0x3d9f3812	0.077743664
137	0x3d083024	0.033249035
138	0x3d90be20	0.070675135
139	0xbd643ab2	-0.05572004
140	0xbc6b4d5a	-0.014361704
141	0x3d2f48d6	0.04279407
142	0x3bf8e9b5	0.0075962194
143	0xbd84b274	-0.0647935
144	0x3d0a2128	0.033723027
145	0x3dc1cc0b	0.09462746
146	0x3d0ebcd1	0.034848038
147	0x3d90b46a	0.07065661
148	0xbcd32c03	-0.025777822
149	0x3db38aff	0.08766746
150	0x3c9370a4	0.017998047
151	0x3d0d8623	0.03455175
152	0xbc3a2d48	-0.011363335
153	0x3dc09236	0.094028875
154	0x3b7715e2	0.0037702252
155	0x3d9f7778	0.07786459
156	0x3dc46ba6	0.09590845
157	0xbc8f0de9	-0.017462688
158	0x3d8e4fe1	0.069488294
159	0x3dd6a8e2	0.104814306
160	0x3d7a00cc	0.061035916
161	0x3d0e911b	0.034806352
162	0xbd70df85	-0.058806915
163	0xbdb5d850	-0.08879149
164	0xbd73ce48	-0.059522897
165	0x3d302649	0.04300526
166	0x3c3c0950	0.01147683
167	0x3c62a731	0.013833807
168	0xbd98efab	-0.07467588
169	0x3c9f8c62	0.01947612
170	0x3d4119aa	0.047143616
171	0xbdb4c64e	-0.08826886
172	0xbcf190ae	-0.029487934
173	0x3b86760a	0.004103427
174	0xbe062a48	-0.13102067
175	0xbe142b8b	-0.14469735
176	0xbd7c982f	-0.06166857
177	0xbdd6f635	-0.10496179
178	0xbdef37cf	-0.116805665
179	0xbdb13d69	-0.08654291
180	0x3d736843	0.059425604
181	0xbd0af463	-0.03392447
182	0xbc8dd887	-0.017315162
183	0xbd3f9298	-0.046770662
184	0x3d0a2bb8	0.0337331
185	0x3d2ffcdd	0.04296576
186	0x3d3f74e9	0.046742354
187	0xbd96e4bf	-0.073678486
188	0x3cc57707	0.024104608
189	0x3d110df7	0.03541371
190	0xbdf451bb	-0.11929651
191	0xbc01b96c	-0.007917743
192	0xbe144503	-0.14479451
193	0xbde98599	-0.11402435
194	0xbd67b9c7	-0.056573655
195	0xbe3a34a6	-0.18184146
196	0xbe2c9d04	-0.16856772
197	0xbe198428	-0.1499182
198	0x3c25e531	0.010125444
199	0xbd89f0b1	-0.06735361
200	0xbbce80dc	-0.0063019823
201	0xbd45a9cb	-0.04825763
202	0xbd7f9fc3	-0.06240822
203	0xbc03e02c	-0.008049052
204	0x3d24adee	0.040204935
205	0xbde45315	-0.11148659
206	0xbd566f17	-0.052352037
207	0xbdfc1335	-0.12308351
208	0xbc10aa91	-0.008829729
209	0xbdc363c9	-0.09540517
210	0x3be0d07b	0.0068607903
211	0xbb484ecb	-0.0030564542
212	0xbdb57419	-0.088600345
213	0xbd9a3720	-0.075300455
214	0xbc935cb4	-0.01798854
215	0x3d5456c5	0.051840562
216	0x3c9fb2cb	0.019494435
217	0x3c415aaf	0.011801406
218	0x3d432d99	0.047650907
219	0xbc7baeba	-0.015361482
220	0xbdca37b2	-0.09873904
221	0xbdbe57b4	-0.09294072
222	0x3cf66d3d	0.030081386
223	0xbdada98a	-0.08479603
224	0xbd41a096	-0.047272287
225	0x3e0080fe	0.12549207
226	0x3bb71692	0.0055874074
227	0x3d417847	0.047233846
228	0x3df8cb45	0.121481456
229	0x3e2a615a	0.16638699
230	0x3def5680	0.116864204
231	0x3dbfaf70	0.09359634
232	0x3da7f7b7	0.08201545
233	0x3ddf26af	0.1089605
234	0xbb99af6e	-0.0046901023
235	0xbcd4f8dd	-0.025997574
236	0x3dd15fdd	0.102233626
237	0x3cdd78ca	0.027035136
238	0x3d74e2f3	0.05978675
239	0xbcc26263	-0.023728555
240	0xbd508499	-0.050907705
241	0xbdb2b2d4	-0.08725515
242	0xbaa65478	-0.0012689969
243	0x3d9940ac	0.07483038
244	0xbd9f1284	-0.077672035
245	0xbdac3198	-0.08407897
246	0x3c2f0d77	0.010684363
247	0xbdf986a1	-0.121838816
248	0xbdce8fac	-0.10085997
249	0xbdc15fec	-0.09442124
250	0xbd26456e	-0.040593557
251	0xbe0f4607	-0.13991557
252	0xbb1d172e	-0.0023970115
253	0x3a26ef87	0.000636809
254	0x3c3ef204	0.011654381
255	0x3c368501	0.011140109

conv3.bias f4 [16]
0	0x3e856d72	0.26060063
1	0x3ecd0642	0.40043837
2	0xbe2b0439	-0.1670083
3	0x3b2f781c	0.0026774472
4	0x3e4ba440	0.19886875
5	0x3d561415	0.052265245
6	0xbe4398ae	-0.19101211
7	0xbde74641	-0.11292697
8	0xbda4a832	-0.08039893
9	0xbe9e1480	-0.30875015
10	0xbdd9bc64	-0.10631636
11	0xbdcf44c1	-0.10120536
12	0x3b945583	0.0045267954
13	0xbda0cd1a	-0.0785162
14	0x3e76ca99	0.24100722
15	0xbd8cc027	-0.06872588

fc1.weight f4 [84, 256]
0	0xbc67fe2e	-0.014159722
1	0xbbe1c6cf	-0.006890155
2	0x3b9cd3fb	0.004786012
3	0xbb89f488	-0.0042100586
4	0x3d0ceca2	0.034405358
5	0x3d382cba	0.04496453
6	0x399c7005	0.000298381
7	0x3d7976e1	0.060904387
8	0x3c84f1a9	0.016228514
9	0xbc82ef68	-0.015983298
10	0x3bffe1b3	0.007808888
11	0xbae1766e	-0.0017201432
12	0xbd239440	-0.039936304
13	0x3d139818	0.03603372
14	0xbabc0934	-0.0014346004
15	0x3d47d3db	0.048786025
16	0x3c9b75af	0.018977014
17	0x3d2234a8	0.039601
18	0xbcbd23ce	-0.023088362
19	0x3b1dfa9b	0.0024105671
20	0x3d4e2114	0.050324515
21	0xbb76ac3a	-0.0037639276
22	0xbd4f64e8	-0.05063334
23	0xbd4cfd0f	-0.050046023
24	0xbd38f99d	-0.045159925
25	0x3d744870	0.059639394
26	0x3d7bfb41	0.06151891
27	0xbd0557c7	-0.032554414
28	0x3ca36486	0.019945394
29	0x3d0a6a6d	0.0337929
30	0x3d62764b	0.055288594
31	0xbc3fc789	-0.011705288
32	0x3c6604e1	0.014039249
33	0x3d434c55	0.047680218
34	0xbd657e16	-0.056028448
35	0xbc8a2fcc	-0.016868494
36	0x3c7c6ceb	0.015406827
37	0xbd2548df	-0.0403527
38	0x3d853495	0.0650417
39	0x3d390328	0.045169026
40	0x3d1df52f	0.038563903
41	0xbcf0ba48	-0.0293857
42	0x3d526450	0.051365197
43	0x3d90bfa4	0.070678025
44	0x3a2b22e8	0.0006528334
45	0x3b6236f4	0.0034517618
46	0xbd11b756	-0.035575233
47	0xbd09dde9	-0.033658896
48	0xbd60bf84	-0.054870144
49	0xbd66a88f	-0.056313094
50	0xbc8e4964	-0.01736898
51	0xbc37ea66	-0.011225319
52	0xbc0e3b53	-0.008681136
53	0xbd4262eb	-0.047457617
54	0xbaffc072	-0.0019512309
55	0x3d10757a	0.035268284
56	0x3d1a8707	0.03772643
57	0xbd0c890a	-0.034310378
58	0x3d496127	0.049164917
59	0x3d47953f	0.048726317
60	0xbc69d02d	-0.014270824
61	0x3ce09fae	0.027419891
62	0x3d9152e1	0.07095886
63	0x3d5ed7e0	0.054405093
64	0xbc590b55	-0.013247331
65	0x3ace93a9	0.0015760559
66	0xbd116c89	-0.035503898
67	0xbd4244a5	-0.047428746
68	0xbc070d75	-0.0082429545
69	0xbd134455	-0.03595384
70	0x3d59fa03	0.053216945
71	0xbd4e5998	-0.050378412
72	0x3bc8b36d	0.006124905
73	0x3ce19aa2	0.027539555
74	0xbc5f5412	-0.013630884
75	0x3d54724f	0.051866826
76	0xbcfeb3af	-0.03109154
77	0xbd22e649	-0.0397704
78	0x3d7d4199	0.061830137
79	0x3badae8c	0.0053003486
80	0x3d16aa44	0.03678347
81	0x3d856619	0.06513614
82	0x3b389c94	0.00281695
83	0x3d50dd6e	0.05099242
84	0x3cb2eac1	0.021840455
85	0xbd654b5e	-0.05598008
86	0xbd17ffe2	-0.037109263
87	0x3d04f570	0.03246063
88	0x3d1eeb58	0.03879866
89	0x3c7c48ea	0.015398243
90	0xbd0f3c0e	-0.034969382
91	0xbcbe3616	-0.02321915
92	0x3d3f6325	0.04672541
93	0xbcbf3e72	-0.023345206
94	0x3cd08c8b	0.025457641
95	0x3c6fa444	0.014626566
96	0x3d371bfb	0.04470442
97	0xbc746045	-0.014915531
98	0xbc711d20	-0.014716417
99	0x3d153fe3	0.03643788
100	0xbce8d8ee	-0.028423753
101	0xbd1dcb69	-0.038524065
102	0x3d081cd4	0.033230618
103	0x3bb7d000	0.0056095123
104	0xbd0fb356	-0.035083137
105	0xbcc64323	-0.024201935
106	0xbd3e8abc	-0.046519026
107	0xbd4fed9d	-0.050763715
108	0xbbad7ebb	-0.0052946485
109	0x3d958f59	0.07302732
110	0x3d86f5f4	0.065898806
111	0x3d90cb15	0.07069985
112	0x3cde128a	0.02710845
113	0xbd7ba86d	-0.06143992
114	0xbd633827	-0.055473473
115	0x3ba1c250	0.004936494
116	0xbd8799b2	-0.06621112
117	0xbcbf7a83	-0.023373848
118	0x3c9bb290	0.019006044
119	0x3d208010	0.03918463
120	0x3cd95f10	0.026534587
121	0x3cf694f9	0.030100333
122	0x3d31d41d	0.043415178
123	0xbc3e478c	-0.011613738
124	0xbc6bfef8	-0.014404051
125	0xbd9b442a	-0.07581361
126	0xbd13cd71	-0.036084596
127	0x3d0ccd7a	0.034375645
128	0xbcf49b12	-0.0298591
129	0x3cf5c925	0.03000314
130	0xb9b36d45	-0.00034222953
131	0x3beb54f1	0.0071817567
132	0xbd3ffe51	-0.046873394
133	0xbcbc343d	-0.022974128
134	0x3d569d67	0.052396204
135	0x3b9b297e	0.004735171
136	0xbd3d5fe8	-0.04623404
137	0xbced9b2a	-0.029004652
138	0x3cdb2780	0.026752234
139	0x3d27cada	0.04096494
140	0xbcc734bf	-0.024317143
141	0x3d4388a7	0.047737744
142	0xbd2cc8d1	-0.0421837
143	0xbc7d975d	-0.015477982
144	0x3d3067af	0.04306763
145	0xbc7349f4	-0.014849175
146	0xbd611c57	-0.054958668
147	0x3c0a7566	0.0084508415
148	0xbcf27495	-0.029596606
149	0x3c812ea8	0.015769318
150	0xba5aa7c0	-0.0008341037
151	0xbc4e7e81	-0.012603403
152	0x3cdcae79	0.026938664
153	0x3d70cff5	0.058792073
154	0x3a558bbe	0.00081461284
155	0xbd0fbfbe	-0.03509497
156	0x3c71e01a	0.014762903
157	0x3d08f800	0.033439636
158	0x3d6d8906	0.057992004
159	0x3b9e9be9	0.0048403633
160	0xbab70dd6	-0.0013965915
161	0x3d7e570e	0.06209474
162	0x3d3193e0	0.043353915
163	0xbd35fe0a	-0.044431724
164	0xbc5498c1	-0.0129758725
165	0x3d58ec92	0.052959986
166	0xbca80a7b	-0.02051281
167	0xbd6da44e	-0.05801802
168	0x3d07913d	0.033097494
169	0x3c822a10	0.015889198
170	0x3d7e4ba2	0.062083848
171	0xbd680d83	-0.05665351
172	0x3d9d3d94	0.07677761
173	0x3d8abc03	0.06774142
174	0x3d92ff65	0.07177619
175	0x3d69ef50	0.05711299
176	0xbd5bc802	-0.05365754
177	0x3c4c41bf	0.012466847
178	0xbd102665	-0.035192866
179	0xbb445c71	-0.0029962326
180	0xbd561593	-0.05226667
181	0xbd15c5e6	-0.036565684
182	0xbcb42009	-0.021987932
183	0x3d3028f5	0.04300781
184	0xbd406e9f	-0.046980496
185	0x3d07b45e	0.033130996
186	0x3b8dc994	0.0043270085
187	0xbd27f484	-0.041004673
188	0xbc8a0c51	-0.016851576
189	0x3d41f187	0.04734948
190	0xbd01cfe4	-0.0316924
191	0xbd1ec388	-0.038760692
192	0xbd05f8a5	-0.03270783
193	0x3ca4a3c8	0.020097628
194	0x3d00f294	0.03148134
195	0x3c03baf6	0.00804018
196	0xbc9e0999	-0.019291686
197	0x3d145bd8	0.0362204
198	0xbc881970	-0.016613692
199	0x3d0da4cd	0.034580994
200	0x38ad61d3	8.267504e-05
201	0x3d2fa67a	0.042883374
202	0xbd2502fa	-0.04028604
203	0x3d5bb233	0.05363674
204	0xbcbfb954	-0.023403801
205	0x3d09e6d9	0.03366742
206	0x3da913f3	0.08255758
207	0x3da8f994	0.08250728
208	0x3d1d8472	0.038456388
209	0xbc7f6aa2	-0.015589388
210	0xbd41d720	-0.0473243
211	0xbd104665	-0.035223383
212	0xbd38f56f	-0.04515594
213	0x3c5cde4e	0.013480736
214	0x3d0934b1	0.033497516
215	0x3d42e623	0.047582757
216	0xbc76705e	-0.015041439
217	0xbc779b80	-0.015112758
218	0x3cdcd012	0.026954684
219	0x3d0dbd6b	0.03460447
220	0xbd10cbc0	-0.03535056
221	0xbd93ceba	-0.07217164
222	0x3d3c5378	0.04597804
223	0xbd40cfda	-0.047073223
224	0xbb882f2d	-0.0041560144
225	0xbd2ed17d	-0.042680252
226	0xbd5af780	-0.05345869
227	0x3ce24e49	0.02762522
228	0xbcad270a	-0.02113678
229	0xbd59c59a	-0.053166963
230	0xbbdc7d6b	-0.006728818
231	0x3d71d5e4	0.059041873
232	0xbc9a7c90	-0.018858224
233	0x3c0c1ef1	0.008552299
234	0x3d625e11	0.05526549
235	0x3c3cebb0	0.011530802
236	0xbb6eca48	-0.0036436487
237	0x3c1e2dd9	0.009654486
238	0xbd11dc7d	-0.035610665
239	0x3c987191	0.01860884
240	0x3d291bd7	0.041286316
241	0xbd0b4735	-0.034003455
242	0xbd82cc10	-0.06386578
243	0xbd4169c1	-0.047219995
244	0xbd2343c4	-0.03985955
245	0xbd087f8f	-0.033324774
246	0x3b64beaa	0.0034903684
247	0x3cb8d522	0.022562567
248	0xbd0f9c3c	-0.035061106
249	0x3d07b77c	0.03313397
250	0xbca9ea52	-0.020741615
251	0xbcefe956	-0.029286068
252	0xbc68b69b	-0.014203693
253	0xbd01da6f	-0.031702455
254	0x3d0c5893	0.03426416
255	0xbd521a8f	-0.05129486

fc1.bias f4 [84]
0	0x3c984754	0.0185887
1	0xbd5d72b4	-0.054064468
2	0x3a98ac01	0.0011647941
3	0x3b49da1a	0.0030800165
4	0x3dc42c32	0.09578742
5	0x3d8109f7	0.06300729
6	0xbdf0d09a	-0.117585376
7	0xbd20dc9a	-0.039272882
8	0x3d3ba477	0.045811143
9	0x3cd90134	0.026489832
10	0x3d4faac4	0.050699964
11	0xbcb68ad5	-0.022282997
12	0x3e221b0f	0.15830635
13	0xbd1fa641	-0.03897691
14	0xbd33ba03	-0.043878566
15	0x3b070a76	0.00206056
16	0xbdb5051c	-0.08838865
17	0xbd64c55e	-0.055852287
18	0xbd7b02d7	-0.061282005
19	0x3d371c8a	0.04470495
20	0xbc8c75e3	-0.017146057
21	0x3cfb7c65	0.030698964
22	0x3ccf5b9c	0.025312237
23	0xbb96a602	-0.0045974264
24	0x3dbb9141	0.09158564
25	0xbd69ffc8	-0.057128698
26	0x3da74bca	0.081687525
27	0x3cb3cd2c	0.02194842
28	0xbd0b0f24	-0.033949986
29	0xbdb44bb9	-0.088035055
30	0xbcafd71c	-0.021464877
31	0x3d4c8636	0.04993268
32	0xbd8d312a	-0.06894143
33	0xbc6f7dfc	-0.014617439
34	0x3d4e0d39	0.05030558
35	0xbd204cef	-0.03913587
36	0xbd80ef6d	-0.06295667
37	0xbd83f4fb	-0.06443211
38	0xbd50887b	-0.050911408
39	0xbd69007a	-0.05688522
40	0x3d6d099d	0.057870496
41	0xbcf15948	-0.029461518
42	0x3ca64efd	0.020301336
43	0xbd3bce1a	-0.04585085
44	0xbc1029a8	-0.008798994
45	0x3db6ff39	0.089353986
46	0x3aaad844	0.0013034423
47	0xbd1faef2	-0.0389852
48	0x3b83aece	0.004018641
49	0x3d77ff18	0.06054601
50	0xbcd79ee6	-0.026320886
51	0xbdb12c9d	-0.086510874
52	0x3dceb38d	0.1009284
53	0xbc6c65d0	-0.014428571
54	0x3dbbb779	0.09165854
55	0x3d6751f3	0.056474637
56	0x3db722b8	0.08942169
57	0x3cf3548e	0.029703405
58	0xbd360fc1	-0.044448618
59	0xbbc63705	-0.0060490393
60	0xba248ee5	-0.00062773965
61	0xbc81f30b	-0.015862962
62	0x3db0e32d	0.0863708
63	0x3e3ce398	0.18446195
64	0x3e53acf3	0.20671444
65	0x3d559f50	0.052153885
66	0xbc934d3d	-0.017981166
67	0xbd761c7b	-0.060085755
68	0xbcf454b4	-0.029825546
69	0x3ca9793a	0.020687688
70	0x3d069614	0.03285797
71	0x3c8df669	0.017329412
72	0x3c603b95	0.01368608
73	0xbd0ce9f3	-0.0344028
74	0x3d9d561d	0.076824404
75	0xbccd853b	-0.025087943
76	0x3d047e66	0.032347105
77	0xbd198d90	-0.03748852
78	0xbcfa8324	-0.03058011
79	0xbc0528ee	-0.008127434
80	0x3c9155ca	0.017741103
81	0xbc39d41d	-0.011342076
82	0x3c471a37	0.012152246
83	0x3df17232	0.11789359

fc2.weight f4 [10, 84]
0	0x3e051a9d	0.12998433
1	0xbd749276	-0.05970999
2	0x3e6b9418	0.23005712
3	0x3dd4b2b5	0.10385648
4	0x3e648eb9	0.2232007
5	0x3e48c231	0.19605328
6	0x3d2611f6	0.040544473
7	0x3d5bc9df	0.053659316
8	0x3d97df7b	0.074156724
9	0xbd8efcc1	-0.06981803
10	0x3db3bc08	0.087760985
11	0x3dbde3d0	0.092719674
12	0xbdecc75a	-0.11561461
13	0x3ac66157	0.0015135211
14	0x3d07ad3d	0.033124197
15	0x3d3047c9	0.04303721
16	0xbddbd7a5	-0.1073449
17	0xbd64cb02	-0.055857666
18	0x3d32519e	0.043534867
19	0x3e102ba1	0.14079143
20	0x3e136f62	0.14397958
21	0x3bb56536	0.005535747
22	0x3e27ae49	0.16375078
23	0xbd30e1bb	-0.043184023
24	0x3d784007	0.060607936
25	0x3dc98532	0.09839858
26	0xbe532835	-0.20620807
27	0x3d97ead8	0.0741784
28	0xbdc5feec	-0.09667763
29	0x3d64d5eb	0.05586807
30	0x3dfc6393	0.1232368
31	0x3c44ec8e	0.01201929
32	0xbce459fc	-0.02787494
33	0x3de2b80a	0.11070259
34	0x3de025a1	0.10944677
35	0x3d903bc5	0.0704265
36	0x3d66f458	0.056385368
37	0xbdc61869	-0.096726246
38	0xbbd116f6	-0.006380911
39	0xbda2f27f	-0.07956409
40	0xbdde1236	-0.10843317
41	0xbd6083e0	-0.054813266
42	0xbda58592	-0.08082117
43	0x3e034ca8	0.12822211
44	0x3df120ba	0.1177382
45	0xbd575076	-0.052566968
46	0xbbf1e629	-0.0073821736
47	0x3d256bfa	0.040386178
48	0x3e3462cc	0.17615813
49	0x3df6408c	0.1202403
50	0xbd8663c2	-0.06561996
51	0x3d885ef6	0.06658737
52	0xbe155f8d	-0.14587231
53	0xbdd15176	-0.102206156
54	0x3d95e469	0.073189564
55	0xbda328f6	-0.07966797
56	0xbd916195	-0.070986904
57	0xbd4dc4e6	-0.050236605
58	0x3de34636	0.11097376
59	0x3b9d8b0d	0.004807836
60	0x3d1908e9	0.037362013
61	0x3d5e34af	0.05424946
62	0x3ca283ef	0.019838301
63	0x3d918607	0.07105642
64	0xbe4d3738	-0.20040596
65	0x3d14e6f9	0.036353085
66	0xbd0f72d4	-0.035021618
67	0xbc66b07a	-0.014080161
68	0xbb5bf02a	-0.0033559897
69	0x3c582cd8	0.013194285
70	0x3d5d4af0	0.054026544
71	0xbd2cc87b	-0.04218338
72	0x3e191b77	0.14951883
73	0xbc3ff688	-0.0117164925
74	0xbda5dbf9	-0.08098597
75	0x3dbeb34b	0.09311541
76	0xbc96692b	-0.018360695
77	0xbd014651	-0.0315612
78	0x3d9e30ca	0.077241495
79	0x3e0c460e	0.13698599
80	0x3d278fdf	0.04090869
81	0xbb761f90	-0.0037555434
82	0xbc55bf1a	-0.01304605
83	0xbdede21a	-0.11615391
84	0xbdd0272c	-0.101637214
85	0xbccbfce7	-0.024900867
86	0xbe04e2c4	-0.12977129
87	0x3e403b46	0.18772611
88	0xbe2ef0cf	-0.17084049
89	0x3df34c6a	0.11879809
90	0x3e6207b8	0.22073257
91	0xbdb49a35	-0.08818475
92	0xbc953446	-0.018213402
93	0xbce25d51	-0.027632387
94	0x3d567c53	0.05236466
95	0xbd8c5ad4	-0.068532616
96	0xbe26e02c	-0.16296452
97	0x3da1d4b5	0.07901899
98	0xbd84dfd6	-0.06488006
99	0x3d8e4d43	0.0694833
100	0x3e05b9f6	0.1305922
101	0xbb3c84db	-0.0028765711
102	0xbddd2809	-0.10798652
103	0xbdd0e620	-0.10200143
104	0x3e0729d2	0.13199547
105	0xbda0d5b8	-0.078532636
106	0x3df4f609	0.1196099
107	0x3da127cf	0.07868921
108	0xbd13bb75	-0.036067445
109	0x3e1eb617	0.1549915
110	0x3e293e1a	0.16527596
111	0x3dd7370a	0.10508545
112	0xbcb36c51	-0.021902235
113	0x3c59eef9	0.013301604
114	0xbd90d5c2	-0.07072021
115	0x3d711ea6	0.05886712
116	0xbccc0784	-0.024905927
117	0xbd4a575b	-0.049399715
118	0x3df29b86	0.1184607
119	0xbd06afc8	-0.03288248
120	0x3e5bcb3c	0.21464247
121	0x3e1f1b03	0.15537648
122	0xbd00f70b	-0.0314856
123	0xbd3f8d74	-0.04676576
124	0xbe5d9173	-0.21637516
125	0x3d154426	0.036441945
126	0xbd1a0c60	-0.037609458
127	0x3e2a07d3	0.16604547
128	0x3e02bdb1	0.12767674
129	0xbe698bc3	-0.22807221
130	0xbd46ad5f	-0.048505183
131	0x3c222755	0.009897073
132	0x3c6c9cf8	0.014441721
133	0xbd90c579	-0.07068915
134	0x3e53e9a2	0.20694593
135	0xbdbd023f	-0.09228944
136	0xbe646d4d	-0.2230732
137	0x3e18e4d5	0.14931042
138	0xbe2aa0db	-0.16662924
139	0xbe442a9c	-0.19156879
140	0x3d80ce80	0.06289387
141	0x3da715f1	0.08158482
142	0x3e1b2155	0.15149434
143	0xbe01f699	-0.12691726
144	0xbc0af105	-0.008480315
145	0x3df4d027	0.119537644
146	0x3c1237b2	0.008924412
147	0xbe8f1e14	-0.27952635
148	0xbdd4318a	-0.10361011
149	0xbe3f843f	-0.18702792
150	0xbdd9dda8	-0.10637981
151	0x3d220dcd	0.039563943
152	0x3ca7eaad	0.020497644
153	0xbccb50d6	-0.024818819
154	0xbd8b80cf	-0.06811678
155	0xbc2f625d	-0.010704604
156	0xbde03e55	-0.10949389
157	0x3e07776c	0.1322915
158	0x3e2668f8	0.1625098
159	0xbe022dca	-0.1271278
160	0xbc766b54	-0.015040237
161	0xbd4d0c23	-0.050060403
162	0xbdf20745	-0.11817793
163	0xbda7193b	-0.08159109
164	0xbdeffa7e	-0.117176995
165	0xbdb2c973	-0.0872983
166	0x3d1f2da7	0.038861897
167	0xbe09c153	-0.13452654
168	0x3d2a69b9	0.04160473
169	0xbdb3c19c	-0.087771624
170	0x3d12237b	0.035678368
171	0x3c9d042a	0.019167025
172	0x3dd9c73f	0.10633706
173	0x3da5f6be	0.08103703
174	0xbdb37f2d	-0.08764491
175	0x3df1d050	0.118073106
176	0x3dea84f0	0.11451137
177	0xbe13d4c1	-0.14436628
178	0x3e08979d	0.13339086
179	0x3e116cd3	0.1420167
180	0x3e7cc6b8	0.2468518
181	0x3d88a50f	0.066721074
182	0x3de0f89f	0.10984921
183	0xbddf34e5	-0.10898761
184	0xbde792e3	-0.11307313
185	0x3db620d2	0.08892979
186	0x3b01131d	0.001969523
187	0xbc9d879f	-0.019229708
188	0x3ac60494	0.0015107566
189	0xbd861c7c	-0.06548402
190	0xbde5a807	-0.11213689
191	0x3ddd2ff1	0.1080016
192	0x3dcc1fb8	0.09966987
193	0xbe268ba3	-0.16264205
194	0xbca6e425	-0.02037246
195	0xbdb2b324	-0.087255746
196	0x3e058e7d	0.13042636
197	0xbe0ff512	-0.1405833
198	0x3dfa557b	0.12223335
199	0xbc2cb17e	-0.010540364
200	0xbd2efa2b	-0.042719048
201	0xbb84da07	-0.004054311
202	0xbca4d725	-0.02012212
203	0xbde42974	-0.11140719
204	0xbdc202fc	-0.094732255
205	0x3be8efa0	0.0071086437
206	0x3d99d9c9	0.07512242
207	0x3c69990b	0.01425768
208	0x3d945157	0.07242077
209	0x3b931656	0.0044887466
210	0x3daccab9	0.08437104
211	0x3b63672a	0.0034698942
212	0xbceca82e	-0.028888788
213	0x3db9cb16	0.09071939
214	0xbc2e7240	-0.0106473565
215	0xbd0403c1	-0.032230143
216	0x3cd1f10a	0.025627632
217	0x3d5794c8	0.052632123
218	0x3e066eb6	0.1312817
219	0x3db3ee3a	0.087856725
220	0x3dc87086	0.09787087
221	0x3d87dc24	0.06633785
222	0x3e7cd19d	0.24689336
223	0xbc4093e7	-0.011754013
224	0x3d5ecd3c	0.054394946
225	0xbd9dafb1	-0.07699526
226	0x3d19186c	0.037376806
227	0xbd931254	-0.0718123
228	0xbcbb65a1	-0.022875609
229	0x3d7390b1	0.05946416
230	0x3da9847e	0.08277224
231	0x3dd1e92a	0.10249551
232	0x3d873014	0.06600967
233	0xbc787bc4	-0.015166227
234	0x3df0c669	0.11756594
235	0xbddc4b45	-0.10756544
236	0xbdb4c12d	-0.08825908
237	0x3dea41cd	0.11438332
238	0x3d952a87	0.07283502
239	0x3dbe82a4	0.093022615
240	0xbd04b9bb	-0.03240369
241	0xbd95128a	-0.07278927
242	0xbdae2494	-0.085030705
243	0x3e0a3934	0.13498384
244	0xbd03f3fe	-0.03221511
245	0xbb582a73	-0.0032984286
246	0xbd03693c	-0.03208278
247	0x3b6f1563	0.0036481253
248	0x3d98e45d	0.07465432
249	0x3d536fb9	0.05162022
250	0xbd00ab0e	-0.03141313
251	0x3dc2a4a1	0.09504057
252	0x3d32e65c	0.04367672
253	0xbd5eda89	-0.05440763
254	0xbd3ede49	-0.046598706
255	0xbc2f74e2	-0.010709019

fc2.bias f4 [10]
0	0xbe9eae7b	-0.30992493
1	0xbeb3240a	-0.34988433
2	0x3ddfbe7b	0.10925003
3	0x3e5d32b8	0.21601379
4	0x3e8239d9	0.2543476
5	0x3d7301a5	0.05932774
6	0x3e813046	0.25232142
7	0x3c86990a	0.016430397
8	0xbd55e185	-0.052217025
9	0xbe879524	-0.26480973
