exercise_notebooks_my_solutions/3. Convolutional Neural Networks/autoencoder/denoising-autoencoder/model_denoiser.pt (torch_old, 108913 bytes, 11 tensors)

conv1.weight f4 [32, 1, 3, 3]
0.27475968 0.27110636 0.22583996 0.15838943 0.12486008 0.1460757 -0.53775084 -0.49793512
-0.12049418 -0.17244256 -0.10081609 0.23860805 -0.055265844 0.06426945 0.37202057 0.20128392
0.33356106 0.32612428 0.018802384 -0.004493494 -0.012991768 -0.027374629 -0.010051421 0.0040426077
-0.018241465 0.0026167089 -0.006674209 0.13550676 0.20331648 0.1328654 0.32528383 0.18873373
0.12442146 0.2740498 -0.2554142 -0.14714426 -0.3575812 0.0064003714 -0.08113919 0.0054571507
0.019532165 0.011932626 -0.008829038 0.008362746 0.015509737 -0.05187657 -0.015603645 0.0011821974
-0.0025996177 0.38289058 0.027535781 -0.06902222 -0.008355957 -0.05644579 0.005728269 0.010206012
-0.0007366151 0.004731991 0.0044999532 -0.04154786 0.0023649712 -0.036010895 0.75431156 -0.021373512
0.15588485 0.2815049 -0.30948645 -0.03254491 0.29957795 -0.36395445 -0.023959247 0.21234941
0.00448707 0.039743602 0.04201377 -0.012233448 0.006481385 0.025085406 -0.04927559 -0.075719565
-0.040262 -0.003478714 -0.014647915 -0.0027198037 -0.00301311 -0.009029176 -0.012182649 -0.012772218
-0.01151626 0.0019332418 0.028421028 -4.1757693 -0.019209605 0.10846109 0.06006139 -0.04695487
0.07879984 0.03197104 -0.023265706 0.099948876 0.20588772 0.62776625 0.05242309 0.05799783
0.26633555 -0.036379643 0.011046677 0.09577122 0.011437123 0.03955954 0.06191236 0.025822077
-0.30208468 0.059114557 0.04881232 0.062166702 0.03059598 0.057578832 0.14925165 0.15279359
0.16048874 0.57264304 0.26917738 0.13711266 0.24446425 0.16138455 -0.0020208913 0.13431722
0.09287727 0.10840209 0.24000037 -0.13320303 0.0038288764 0.102316 0.053392515 0.076990865
0.15221752 0.12864824 0.10592394 0.36758757 0.30576423 0.07517638 0.24088769 0.10626416
0.089738294 0.0061389105 -0.028812835 0.30799 0.14001393 0.016710643 0.38125288 0.3202999
0.09431287 -0.10298063 -0.028690452 -0.1790638 -0.017795464 0.04745002 -0.11028203 -0.46754712
-0.038914762 -0.09279667 -0.11235069 -0.5078458 -0.13718611 -0.01679256 0.07207943 0.06290174
0.013285153 0.037844356 0.039838884 0.1798009 0.45912322 0.13471583 0.20798656 0.19346403
0.123290755 0.11457768 0.11670847 0.0043879487 0.020267207 0.020082075 -0.09026815 0.0071024247
0.036057305 -0.13179308 -0.0037912696 -0.15782578 -0.25670305 0.21385574 0.057917584 0.09095081
0.083945625 -0.026872195 0.025632955 0.14903751 0.012750965 0.12424332 0.014721915 0.0013094986
-0.0065178117 -0.10733762 0.013947621 0.009197474 0.019033538 0.0011638864 0.004333482 -0.12952211
-0.11609019 -0.021733692 -0.16975428 -0.012397539 -0.101536326 -0.04447257 -0.12260568 -0.068028726
-0.011234807 0.0103122415 0.010792414 0.004750161 0.037440654 0.06274566 0.025399689 0.10233185
-7.4516077 0.0013060587 -0.1027687 -0.0026083146 -0.023212124 -0.5315244 -0.021863637 0.0032551142
-0.019970572 -0.0042547095 0.032670505 0.168333 -0.29469612 0.099906325 0.25325403 0.17392328
-0.059552122 0.042064156 0.07250565 -0.11359729 -0.2277864 -0.41391703 0.053701162 -0.0888941
-0.13068658 0.41946396 0.4556767 0.36526045 0.24915375 0.29509267 0.24556077 0.0599251
00000000: 4dad 8c3e 74ce 8a3e 9742 673e d730 223e
00000010: a4b6 ff3d de94 153e 0aaa 09bf 5af1 febe
00000020: a7c5 f6bd c894 30be ab78 cebd ab55 743e
00000030: 705e 62bd b49f 833d 7b79 be3e 5f1d 4e3e
00000040: 84c8 aa3e c3f9 a63e 7507 9a3c 293e 93bb
00000050: 6ddb 54bc c240 e0bc b7ae 24bc da77 843b
00000060: 206f 95bc 177d 2b3b 53b3 dabb 49c2 0a3e
00000070: 3232 503e de0d 083e 9a8b a63e 6a43 413e
00000080: aed0 fe3d 4150 8c3e a6c5 82be fcac 16be
00000090: e214 b7be 35ba d13b 4e2c a6bd e6d1 b23b
000000a0: eb01 a03c 1081 433c aba7 10bc e603 093c
000000b0: 8d1c 7e3c 877c 54bd 6ea6 7fbc f6f3 9a3a
000000c0: 595e 2abb 3c0a c43e b892 e13c 865b 8dbd
000000d0: 6de7 08bc b333 67bd 34b4 bb3b 1e37 273c
000000e0: 6719 41ba d10e 9b3b 5874 933b 172e 2abd
000000f0: a2fd 1a3b 2980 13bd 901a 413f 8117 afbc
00000100: 47a0 1f3e 6921 903e 0275 9ebe d04d 05bd
00000110: 4862 993e 3d58 babe 2f46 c4bc 2072 593e
00000120: 4508 933b 30ca 223d a216 2c3d cd6e 48bc
00000130: cc61 d43b e97f cd3c 33d5 49bd dc12 9bbd
00000140: c4e9 24bd 23fb 63bb cffd 6fbc bc3e 32bb
00000150: 9977 45bb 1cef 13bc bc99 47bc 9142 51bc
00000160: b2ae 3cbc d564 fd3a 37d3 e83c e79f 85c0
00000170: 765d 9dbc d920 de3d ef02 763d c053 40bd
00000180: cf61 a13d 11f4 023d b997 bebc ffb1 cc3d
00000190: 3bd4 523e 4ab5 203f 98b9 563d 228f 6d3d
000001a0: 225d 883e d202 15bd 1ffd 343c b423 c43d
000001b0: c562 3b3c 2f09 223d d197 7d3d d288 d33c
000001c0: d8aa 9abe 1b22 723d 6def 473d 83a2 7e3d
000001d0: 6ca4 fa3c c8d7 6b3d 6dd5 183e ec75 1c3e
000001e0: 2957 243e bc98 123f 9ed1 893e 4367 0c3e
000001f0: d654 7a3e fe41 253e ee70 04bb 748a 093e
00000200: 7036 be3d ea01 de3d a8c2 753e 6066 08be
00000210: e3ed 7a3b 0d8b d13d 1cb2 5a3d 63ad 9d3d
00000220: e9de 1b3e 5dbc 033e a7ee d83d 7034 bc3e
00000230: 218d 9c3e 13f6 993d 43ab 763e 06a1 d93d
00000240: b6c8 b73d ea28 c93b e508 ecbc deb0 9d3e
00000250: d05f 0f3e c2e4 883c 9433 c33e 59fe a33e
00000260: 1b27 c13d 82e7 d2bd 3d08 ebbc 805c 37be
00000270: cbc7 91bc f45a 423d 8cdb e1bd 5662 efbe
00000280: 1665 1fbd 2e0c bebd 1e18 e6bd 2f02 02bf
00000290: 847a 0cbe 8d90 89bc 619e 933d a1d2 803d
000002a0: f8a9 593c af02 1b3d 192e 233d ba1d 383e
000002b0: 3312 eb3e f2f2 093e 6efa 543e 6f1b 463e
000002c0: dd7f fc3d b4a7 ea3d da04 ef3d c8c8 8f3b
000002d0: 6a07 a63c 2a83 a43c 82de b8bd 75bb e83b
000002e0: d3b0 133d c4f4 06be f376 78bb 159d 21be
000002f0: 956e 83be 00fd 5a3e fd3a 6d3d 6b44 ba3d
00000300: afeb ab3d 1423 dcbc 34fc d13c 4a9d 183e
00000310: 6ce9 503c 4873 fe3d 3034 713c 7ba3 ab3a
00000320: 5e93 d5bb d3d3 dbbd 9084 643c 01b1 163c
00000330: 39ec 9b3c 8c8d 983a e2ff 8d3b 72a1 04be
00000340: b2c0 edbd db0a b2bc 11d4 2dbe 0c1f 4bbc
00000350: 47f2 cfbd df28 36bd b018 fbbd a552 8bbd
00000360: 3212 38bc adf4 283c aad2 303c 3da7 9b3b
00000370: 5f5b 193d cc80 803d 0213 d03c 5c93 d13d
00000380: 9273 eec0 0f30 ab3a 6578 d2bd 42f0 2abb
00000390: 5a27 bebc fc11 08bf 5f1b b3bc c153 553b
000003a0: 5399 a3bc 176b 8bbb 82d1 053d 7c5f 2c3e
000003b0: 69e2 96be b09b cc3d 83aa 813e f218 323e
000003c0: edec 73bd 774b 2c3d d87d 943d b2a5 e8bd
000003d0: d740 69be efec d3be c0f5 5b3d 1c0e b6bd
000003e0: b4d2 05be fbc3 d63e 754e e93e 6b03 bb3e
000003f0: 2922 7f3e 6316 973e 4874 7b3e 0674 753d

conv1.bias f4 [32]
-0.45889136 -0.6288144 0.28942633 -0.55950576 0.15063712 -0.21368565 -0.6244303 -0.37005293
0.2998737 0.38528314 -0.013331963 -0.7607573 -0.0046496955 -1.0954579 -0.30524397 -0.60823137
-0.6608978 0.27032954 0.16487347 -0.8543446 0.2575517 -0.28247523 0.07402884 0.32718608
0.044904605 0.26910508 -0.35901058 -0.5577578 -0.3910485 -0.0028237868 0.054766007 -0.4018999
00000000: cff3 eabe fbf9 20bf b02f 943e c53b 0fbf
00000010: 9e40 1a3e 69d0 5abe aada 1fbf 9477 bdbe
00000020: 0c89 993e d543 c53e 4e6e 5abc fec0 42bf
00000030: 795c 98bb f737 8cbf f048 9cbe 0db5 1bbf
00000040: 9930 29bf a268 8a3e 97d4 283e 54b6 5abf
00000050: d1dd 833e 98a0 90be 6f9c 973d ef84 a73e
00000060: e4ed 373d 24c8 893e 3cd0 b7be 37c9 0ebf
00000070: 8237 c8be 480f 39bb 5252 603d d3c5 cdbe

conv2.weight f4 [64, 32, 3, 3]
0.022649506 0.0041803797 0.025195895 0.021239044 0.029117608 -0.054715343 0.04496879 0.046782814
-0.024533156 -0.013205322 -0.03993283 -0.038610846 0.017000148 -0.059122246 0.02875544 0.00015565386
-0.06208422 -0.054693118 -0.00032897014 -0.02711256 0.0039045503 0.017632646 -0.04014415 -0.06933799
0.044217136 -0.011039479 -0.02386646 0.00723276 -0.047178343 -0.050259996 -0.03246598 -0.039701335
0.018733535 -0.0067956527 -0.0060467273 -0.027801426 0.012323876 -0.016820563 0.02562862 -0.0025571033
-0.056317095 0.006476751 -0.039132487 0.027545504 -0.05569832 -0.036462426 -0.031317137 -0.059678547
0.046824068 -0.04784333 -0.037512343 0.0006953644 0.048426073 0.039876457 0.0015575348 -0.04159045
0.041730043 -0.04318635 -0.030473063 0.002076179 0.004059506 -0.049117897 0.025421042 0.0019439895
0.00041209074 0.01608439 0.046703085 -0.020031758 -0.04351154 0.02232891 -0.017580781 0.0074139913
-0.041884452 -0.053455673 0.0051161153 -0.066400915 0.02824522 0.039860968 -0.05855554 -0.031918027
0.017117474 -0.043197572 0.04114033 0.006732137 -0.0312558 0.03704749 -0.010999572 0.03199883
-0.003671079 -0.05871632 0.047312442 -0.04330961 0.011042195 -0.0598293 -0.052571036 -0.059357867
-0.0036194846 0.04597693 -0.0059658154 -0.05812649 0.0132976975 0.017866964 -0.026990684 0.013103262
0.014801186 0.0098602455 0.038494628 0.009985883 -0.014290825 0.010615483 -0.03573304 -0.04254019
-0.045933023 0.027276462 -0.05377819 0.011430331 0.019962654 0.044668775 -0.008260738 -0.038513828
-0.002966053 -0.029587995 -0.050107017 0.050666206 0.028838411 0.028099548 0.0038105485 0.02760095
0.022580884 0.012118103 -0.027767112 -0.036391553 0.020058447 -0.0051206467 -0.014671592 -0.05796396
-0.024853066 -0.013128721 0.02319444 0.011493261 0.005489392 -0.047988273 0.044980656 0.020194773
-0.011021547 0.03146776 -0.0062686238 0.0041454886 -0.05731888 -0.039424285 0.020027371 0.044474855
0.020624058 0.022685321 -0.02692469 -0.04583501 -0.0046379357 -0.021563044 -0.008449853 0.0036655406
-0.0063123484 -0.025847958 -0.059973698 -0.014062564 0.016220862 0.03906274 -0.02951215 -0.0146354055
-0.05575705 0.029190267 -0.044444535 0.046169356 -0.029641991 -0.0035708537 0.016945183 -0.05070188
-0.034992747 -0.025347307 -0.042082608 0.020536758 0.04331353 -0.028029714 0.00056676264 0.015835842
-0.05296819 0.031221053 -0.023763282 0.002284086 -0.0055391416 -0.006305437 -0.038780183 0.034141667
-0.025368586 -0.05951305 -0.059742957 -0.0072231055 0.03231152 -0.03949818 0.04386275 -0.012021948
0.022701958 -0.05658236 -0.010734841 0.05063895 -0.051278245 0.05079294 -0.013653655 -0.039520975
0.009064182 -0.04055451 -0.03176688 -0.056811333 -0.0035867721 -0.0054924157 0.0330832 -0.011478472
0.041861746 0.050711267 -0.064294755 -0.00205356 -0.056194726 -0.025341757 -0.03583981 0.00367723
0.054881293 0.041349806 -0.0018016543 -0.051910736 -0.05430369 0.013012531 0.03868012 -0.038577937
-0.023080453 0.018309798 0.040452294 -0.034956243 -0.05205332 0.0007479925 -0.02912289 -0.063749865
0.02281021 0.015172105 0.018503021 -0.026094118 0.012727637 0.045271393 -0.058531992 0.04295632
-0.012904275 -0.031071287 -0.017052189 0.045412436 0.014866531 -0.049840663 0.02259718 -0.01712309
00000000: 758b b93c 91fb 883b 9f67 ce3c 81fd ad3c
00000010: 0d88 ee3c 321d 60bd 3231 383d 569f 3f3d
00000020: c2f9 c8bc 235b 58bc 9b90 23bd 6826 1ebd
00000030: e543 8b3c 2b2a 72bd 8790 eb3c 0437 2339
00000040: 064c 7ebd e405 60bd a079 acb9 291b debc
00000050: 7ce3 7f3b 5772 903c 316e 24bd 1301 8ebd
00000060: 071d 353d eede 34bc 9883 c3bc ca00 ed3b
00000070: 143e 41bd 6ddd 4dbd 0cfb 04bd de9d 22bd
00000080: 1277 993c 11ae debb a023 c6bb d1bf e3bc
00000090: 15ea 493c 47cb 89bc 1df3 d13c 1395 27bb
000000a0: c1ac 66bd ed3a d43b 6349 20bd 1ca7 e13c
000000b0: ec23 64bd a059 15bd 6646 00bd 7e71 74bd
000000c0: 98ca 3f3d 5ef7 43bd 8ba6 19bd 1d49 363a
000000d0: 6b5a 463d 7f55 233d 3226 cc3a bf5a 2abd
000000e0: 1fed 2a3d 2ce4 30bd a5a2 f9bc 8110 083b
000000f0: 9b05 853b d92f 49bd ca3f d03c 77cd fe3a
00000100: e20d d839 69c3 833c bc4b 3f3d a419 a4bc
00000110: 2839 32bd 1eeb b63c 9205 90bc 11f1 f23b
00000120: 088f 2bbd 56f4 5abd 16a5 a73b 34fd 87bd
00000130: 8562 e73c 4145 233d efd7 6fbd 7abc 02bd
00000140: f239 8c3c f0ef 30bd c382 283d 4299 dc3b
00000150: 1506 00bd 1cbf 173d 8d37 34bc 3511 033d
00000160: 7c96 70bb 8680 70bd b1ca 413d 6b65 31bd
00000170: 53ea 343c 910f 75bd ba54 57bd 3c21 73bd
00000180: e034 6dbb 4e52 3c3d e37c c3bb 0b16 6ebd
00000190: 96de 593c bd5d 923c 911b ddbc 10af 563c
000001a0: ac80 723c de8c 213c 8bac 1d3d d49b 233c
000001b0: 1124 6abc 90ec 2d3c cf5c 12bd 9f3e 2ebd
000001c0: 4424 3cbd e372 df3c 8546 5cbd 4846 3b3c
000001d0: b888 a33c 9bf6 363d 0c58 07bc adc0 1dbd
000001e0: 1d62 42bb 8662 f2bc 043d 4dbd 5e87 4f3d
000001f0: 883e ec3c 0631 e63c 65ba 793b 631b e23c
00000200: 8cfb b83c 028b 463c db77 e3bc 4f0f 15bd
00000210: 9d51 a43c 19cb a7bb 1e61 70bc 9e6b 6dbd
00000220: a898 cbbc d919 57bc 4402 be3c 3b4e 3c3c
00000230: 5ce0 b33b 5a8f 44bd a33d 383d 826f a53c
00000240: b893 34bc 57e4 003d 0769 cdbb e1d6 873b
00000250: 34c7 6abd 5c7b 21bd 7110 a43c 442b 363d
00000260: c9f3 a83c 91d6 b93c 2b91 dcbc 7ebd 3bbd
00000270: d3f9 97bb fba4 b0bc 4171 0abc 9139 703b
00000280: d1d7 cebb 19bf d3bc fba6 75bd ab66 66bc
00000290: 9de1 843c 4000 203d 77c3 f1bc 57c9 6fbc
000002a0: 8161 64bd 6d20 ef3c 790b 36bd 141c 3d3d
000002b0: c3d3 f2bc fc04 6abb a0d0 8a3c c6ac 4fbd
000002c0: 8e54 0fbd 28a5 cfbc d05e 2cbd b43c a83c
000002d0: 8769 313d 929e e5bc cc92 143a 2bba 813c
000002e0: 2cf5 58bd 4bc3 ff3c 37ab c2bc 9bb0 153b
000002f0: b081 b5bb d79d cebb f8d7 1ebd 22d8 0b3d
00000300: c8d1 cfbc f5c3 73bd 08b5 74bd cdaf ecbb
00000310: 1659 043d d8c8 21bd 6da9 333d b4f7 44bc
00000320: 75f9 b93c e8c2 67bd 30e1 2fbc ca6a 4f3d
00000330: 2309 52bd 420c 503d 94b3 5fbc bfe0 21bd
00000340: ef81 143c 7c1c 26bd fd1d 02bd 00b3 68bd
00000350: 0d10 6bbb b9f9 b3bb 4082 073d 3310 3cbc
00000360: 3977 2b3d 9eb6 4f3d f8ac 83bd 0595 06bb
00000370: 712c 66bd 8499 cfbc c4cc 12bd affd 703b
00000380: 35cb 603d 6a5e 293d 7d25 ecba 5aa0 54bd
00000390: 8c6d 5ebd 8332 553c 0c6f 1e3d e603 1ebd
000003a0: 3813 bdbc 6efe 953c 4eb1 253d 472e 0fbd
000003b0: dd35 55bd ed14 443a 2193 eebc 4a8f 82bd
000003c0: 7adc ba3c 6c94 783c a693 973c 55c3 d5bc
000003d0: 9487 503c 7f6e 393d 3ebf 6fbd f7f2 2f3d
000003e0: 746c 53bc 3689 febc 08b1 8bbc 6402 3a3d
000003f0: c092 733c b925 4cbd b91d b93c b945 8cbc

conv2.bias f4 [64]
-0.04905988 0.097487174 0.19812082 0.014223796 0.16363525 0.18321234 0.0986688 0.2741958
-0.02644786 0.0036228749 -0.136284 0.22641443 0.6137995 0.026277237 -0.1741046 -0.11769163
0.19988738 -0.11828377 0.022498257 -0.05854726 -0.3092457 0.035976566 0.15022959 -0.017788138
0.040577084 0.14126377 -0.29960743 0.20372483 0.15874937 -0.012142153 0.1898173 -0.1581847
-0.13131054 0.24885641 -0.024750449 -0.09626169 -0.0015424999 0.009590437 -0.16296941 -0.3092421
0.28541985 -0.23180361 -0.04213749 0.12740283 0.101485334 -0.27971524 0.13005133 -0.005575461
0.009877003 -0.029720608 0.5562655 0.22323744 -0.056452364 -0.09479036 -0.0077569224 0.18244739
-0.043391924 0.27062973 -0.32834122 0.12836348 0.6059826 -0.332127 0.14192308 -0.046341706
00000000: 03f3 48bd 5ba7 c73d 2fe0 4a3e ed0a 693c
00000010: 0090 273e 049c 3b3e de12 ca3d 6463 8c3e
00000020: 2fa9 d8bc c16d 6d3b 088e 0bbe 2fd9 673e
00000030: f721 1d3f 5c43 d73c 7a48 32be 4f08 f1bd
00000040: 47af 4c3e c33e f2bd 444e b83c 40cf 6fbd
00000050: 7455 9ebe 2a5c 133d c9d5 193e 6eb8 91bc
00000060: 2834 263d 73a7 103e 2566 99be 3e9d 503e
00000070: 328f 223e e2ef 46bc 775f 423e 2cfb 21be
00000080: 4576 06be 37d4 7e3e 74c1 cabc d924 c5bd
00000090: b52d caba 3521 1d3c 74e1 26be fb54 9ebe
000000a0: 8d22 923e ed5d 6dbe 5c98 2cbd e375 023e
000000b0: 8bd7 cf3d d636 8fbe 2d2c 053e 5bb2 b6bb
000000c0: 27d3 213c a278 f3bc 6a67 0e3f 5b98 643e
000000d0: 983a 67bd 7321 c2bd c82d febb 7dd3 3a3e
000000e0: bbbb 31bd fb8f 8a3e 571c a8be b771 033e
000000f0: ad21 1b3f 8d0c aabe 4954 113e cdd0 3dbd

conv3.weight f4 [8, 64, 3, 3]
-0.040739328 -0.037042286 0.036888298 0.018616695 -0.011050355 0.03631187 0.010199208 0.031210508
0.001694113 0.0046554543 0.014982153 0.031073902 0.0061597563 0.03330173 0.0097735785 -0.005999446
0.005347576 -0.014198899 -0.052595377 -0.003471591 -0.024691124 -0.027412973 -0.05519931 0.024251068
0.018421428 -0.042124856 0.005362638 -0.036608532 -0.0118858265 -0.023279963 -0.041720256 -0.04337923
-0.051530983 -0.0249566 -0.03360272 0.019258363 -0.0026758832 -0.017757464 -0.028700804 -0.0073227882
0.0065074093 0.002447403 -0.011632601 0.0006916943 0.019382767 -0.025739653 0.009795722 -0.05361058
-0.030880827 0.019854562 -0.039621815 -0.031722955 -0.04525636 -0.037651427 0.0073830634 0.0109647205
-0.021736778 -0.031677138 0.021264207 0.023334153 -0.039490417 -0.031696223 -0.023053266 -0.04850613
0.0018788752 -0.001442004 -0.033332724 -0.0070387954 -0.041682962 -0.016941188 -0.013360839 -0.045968443
0.012644236 0.016336083 0.009557327 -0.026287658 -0.04480359 -0.01136638 -0.02714327 0.016632752
-0.023941986 -0.01870574 0.018860659 -0.047798283 -0.023694348 -0.052723106 -0.049379867 0.008909044
-0.011727038 -0.056404274 0.027328983 -0.04894562 7.2928575e-05 -0.005315686 -0.038953688 -0.01444314
-0.022203041 -0.0077972105 0.009302625 -0.020764317 -0.044904366 -0.032337032 0.026358647 -0.05662104
-0.049488276 -0.025088463 -0.019006079 0.026608387 -0.012769942 -0.016720932 0.012525761 0.0013024085
-0.0017414528 -0.03792533 0.031830058 0.0019126226 0.022043034 0.0063157342 -0.03239071 -0.041081067
-0.011387467 -0.00884885 0.031858463 0.031531934 0.039803136 -0.03253509 0.013800441 -0.039895806
-0.031809494 0.0024214648 -0.032360572 0.010526937 0.018179232 0.012205421 -0.056699708 -0.0002194507
-0.04159116 -0.017618444 -0.015724447 -0.042033326 -0.018212646 -0.004938339 0.021548647 -0.0037442953
-0.018099306 -0.021545893 -0.0041511804 0.03554069 0.012549754 -0.01980697 -0.037739106 -0.034593076
-0.043965198 0.00041616228 0.018524652 -0.012205675 -0.018706452 -0.0048519443 0.029820755 0.023034861
-0.0052004037 -0.034202736 -0.0077408827 -0.035388116 -0.01463127 -0.044490576 0.004986445 -0.055070456
0.02719624 0.0067520784 -0.04266788 0.0054183602 -0.036903974 0.026814412 -0.006268721 0.03073873
-0.0077003688 0.020704877 0.0065221786 -0.02036668 -0.021366928 -0.04617629 -0.024215665 -0.008953507
-0.036842763 -0.029173806 0.029337265 -0.005072331 0.013366048 0.026475701 -0.027549908 -0.004495904
0.03309867 0.007623151 -0.005563263 0.010972872 -0.021335041 -0.007535681 -0.023985075 -0.045086227
-0.037624747 0.021463733 -0.047365114 0.020135382 0.027552407 0.0010430084 -0.050916217 -0.02485703
-0.02476433 0.0067458116 0.031270582 -0.039917365 -0.00216889 -0.0082977675 -0.0075338297 -0.023720568
-0.018114962 0.01711294 0.032183345 -0.020244783 0.024935892 -0.0030370834 0.018210715 -0.05695714
-0.0068396726 -0.024283756 0.007330544 -0.021241069 -0.03162971 -0.0014155293 -0.022324782 -0.0010830259
0.021046016 0.011843413 0.021583818 -0.027325885 -0.050804824 0.002248539 0.02187975 -0.048854895
0.025171084 -0.049222786 -0.013121602 -0.014530908 -0.016885685 -0.059510503 0.018463751 -0.050819244
-0.045250673 -0.009462086 -0.011059252 0.015441433 -0.031837877 -0.0068888683 -0.0037174025 -0.027459944
00000000: 48de 26bd a7b9 17bd 2f18 173d 0a82 983c
00000010: 8c0c 35bc c1bb 143d 941a 273c 2ead ff3c
00000020: 000d de3a c88c 983b b477 753c b28e fe3c
00000030: c8d7 c93b 6567 083d 5c21 203c 0097 c4bb
00000040: b83a af3b 80a2 68bc 406e 57bd a283 63bb
00000050: 0a45 cabc 2c91 e0bc ac18 62bd 2daa c63c
00000060: 89e8 963c 1d8b 2cbd 11b9 af3b d4f2 15bd
00000070: c5bc 42bc 9fb5 bebc dce2 2abd 6bae 31bd
00000080: 2712 53bd c971 ccbc 01a3 09bd b7c3 9d3c
00000090: df5d 2fbb 1a78 91bc f31d ebbc 00f4 efbb
000000a0: 1b3c d53b 9c64 203b aa96 3ebc d252 353a
000000b0: 9cc8 9e3c f7db d2bc 3c7e 203c c496 5bbd
000000c0: caf9 fcbc 09a6 a23c 7c4a 22bd eeef 01bd
000000d0: bc5e 39bd 6238 1abd a0ed f13b 5fa5 333c
000000e0: 5411 b2bc e3bf 01bd 4632 ae3c 4427 bf3c
000000f0: b4c0 21bd e6d3 01bd 34da bcbc 5dae 46bd
00000100: 9744 f63a a001 bdba e587 08bd b2a5 e6bb
00000110: c1bb 2abd 3fc8 8abc 6ce7 5abc 6849 3cbd
00000120: c529 4f3c 40d3 853c 5696 1c3c 3759 d7bc
00000130: f883 37bd 0e3a 3abc 905b debc 6941 883c
00000140: fc21 c4bc c83c 99bc ab81 9a3c 22c8 43bd
00000150: a61a c2bc 2ff4 57bd 8b42 4abd 3df7 113c
00000160: c322 40bc 2b08 67bd 08e1 df3c 347b 48bd
00000170: 3bf1 9838 352f aebb e78d 1fbd eba2 6cbc
00000180: 27e3 b5bc be7f ffbb 0a6a 183c ee19 aabc
00000190: a4ed 37bd d673 04bd 17ee d73c 77eb 67bd
000001a0: 38b4 4abd 5286 cdbc a3b2 9bbc d5f9 d93c
000001b0: 0539 51bc 56fa 88bc d938 4d3c 94b5 aa3a
000001c0: 7641 e4ba 9757 1bbd 3c60 023d f7b0 fa3a
000001d0: 9893 b43c 38f4 ce3b 1fac 04bd 9f44 28bd
000001e0: 8092 3abc c4fa 10bc 057e 023d a127 013d
000001f0: 9d08 233d 8443 05bd 3f1b 623c c969 23bd
00000200: ac4a 02bd 70b1 1e3b 858c 04bd 2d79 2c3c
00000210: 9dec 943c 3ff9 473c f43d 68bd 591c 66b9
00000220: 7e5b 2abd 8e54 90bc 8ed0 80bc 232b 2cbd
00000230: b032 95bc cad1 a1bb ca86 b03c da62 75bb
00000240: ff44 94bc 0381 b0bc a006 88bb 1d93 113d
00000250: 7c9d 4d3c 3a42 a2bc 5294 1abd 78b1 0dbd
00000260: da14 34bd 5b30 da39 03c1 973c 50fa 47bc
00000270: 463e 99bc 0ffd 9ebb a84a f43c 9bb3 bc3c
00000280: 2668 aabb 2b18 0cbd 3ba7 fdbb 21f3 10bd
00000290: ffb7 6fbc c03b 36bd 5565 a33b 8f91 61bd
000002a0: a6ca de3c 8a40 dd3b 84c4 2ebd 808c b13b
000002b0: 9f28 17bd e6a9 db3c d869 cdbb cacf fb3c
000002c0: 6053 fcbb 469d a93c 00b8 d53b 06d8 a6bc
000002d0: b209 afbc 5923 3dbd ee5f c6bc bbb1 12bc
000002e0: 70e8 16bd e8fd eebc b454 f03c cc35 a6bb
000002f0: 45fd 5a3c 92e3 d83c 58b0 e1bc 6052 93bb
00000300: 7992 073d a0cb f93b 084c b6bb 90c7 333c
00000310: d3c6 aebc e0ed f6bb 597c c4bc 56ac 38bd
00000320: 681c 1abd b6d4 af3c ec01 42bd f5f2 a43c
00000330: 96b5 e13c 8eb5 883a 868d 50bd f8a0 cbbc
00000340: 90de cabc f80b dd3b 9515 003d 6480 23bd
00000350: f023 0ebb 5cf3 07bc 58de f6bb a351 c2bc
00000360: d465 94bc 7030 8c3c afd2 033d 63d8 a5bc
00000370: 5b46 cc3c ce09 47bb a32e 953c e44b 69bd
00000380: 551f e0bb baee c6bc 0f35 f03b c001 aebc
00000390: 288e 01bd 4889 b9ba 76e2 b6bc 52f4 8dba
000003a0: b268 ac3c e00a 423c 8cd0 b03c 89da dfbc
000003b0: b818 50bd 395c 133b 293d b33c 121c 48bd
000003c0: 9733 ce3c d59d 49bd fdfb 56bc 0c13 6ebc
000003d0: d953 8abc 49c1 73bd 4b41 973c d727 50bd
000003e0: c558 39bd dd06 1bbc dd31 35bc 10fe 7c3c
000003f0: 6f68 02bd 04bc e1bb aa9f 73bb adf3 e0bc

conv3.bias f4 [8]
-0.011445703 0.39592344 -0.0358852 0.53934586 0.05423539 0.074282214 0.38149145 0.33294523
00000000: c286 3bbc 7ab6 ca3e 5cfc 12bd 9212 0a3f
00000010: ee25 5e3d 4621 983d d952 c33e cc77 aa3e

t_conv1.weight f4 [8, 16, 3, 3]
0.1081938 0.043544047 -0.11694274 0.018313952 -0.037414387 -0.097757466 -0.11424496 -0.0891119
-0.018538289 0.0064258086 0.019123428 -0.036094382 -0.0063781003 -0.021199413 -0.07207288 -0.098840244
0.023917325 -0.030907238 0.032098345 -0.09093411 -0.017081909 -0.078687325 -0.061969854 -0.107787795
0.10627551 0.066652276 0.07792718 0.001060695 0.045926087 0.06978564 0.0043551773 -0.06308484
-0.02215261 0.10584564 -0.077179804 -0.04562973 -0.053318724 0.045656916 0.041014202 0.0021313801
-0.017998926 -0.0004355982 -0.08203301 0.08478118 -0.10883495 0.09498278 -0.096770026 -0.09745945
-0.035236135 0.11348504 0.033370357 0.11133286 0.03680677 -0.101596504 0.11441341 0.043385588
-0.009532524 -0.06973852 0.092928745 -0.06469671 -0.035835642 -0.07643047 -0.117215544 -0.039896443
-0.1135074 -0.093242586 0.07691375 -0.04268506 0.075027086 -0.11647692 0.100322165 -0.09490652
-0.11689535 -0.109171435 0.024746083 0.024464838 0.08889819 0.06025488 -0.07013624 -0.016636793
-0.034717698 -0.0533953 -0.0697974 0.07424746 -0.0034955833 0.04529541 -0.12869513 -0.08565919
-0.11252552 -0.055520527 0.05013014 0.103583835 -0.113723114 0.04377649 -0.057575665 0.10416094
0.013175834 0.08463392 0.09407583 -0.06636205 0.117602654 0.07647028 0.09419676 0.11508361
0.009551458 -0.08607001 -0.08324664 0.017526902 0.028548118 0.031694412 -0.039286885 0.009271404
0.089535855 -0.098241314 0.019133821 -0.03777031 -0.02777375 -0.059617873 -0.0850538 0.019864883
0.040756065 -0.0916769 0.044946074 0.050189435 -0.10753541 -0.07164945 0.11709864 -0.0727198
-0.10346126 0.030633146 0.036397856 0.04940424 0.03881798 -0.032126732 -0.079839975 -0.10350032
0.0021619687 0.08870499 -0.0013130158 0.100096636 0.07123097 -0.07246201 0.10523225 0.046310645
0.31708685 -0.50627464 -0.38653243 0.045148727 -0.022574008 -0.47822374 0.111044 -0.26075348
0.12779726 0.18207134 0.12185661 -0.02692101 0.00021846901 -0.025834199 -0.42212334 0.034338728
0.12734975 -0.33415288 0.034408677 0.12586728 -0.067803204 0.074161015 0.49042207 0.15566029
-0.03754516 0.2483112 0.08857009 -0.7326476 -0.17584327 -0.029087862 -0.21962956 -0.04297022
0.23651963 1.0136094 -0.125234 -1.0455537 0.18096074 -0.13222215 0.07126095 -0.023479255
-0.088117324 -0.022378791 -0.095220104 -0.25459146 0.35034627 0.7170809 0.08667822 -0.8055538
-0.03398602 0.0823066 -0.2092408 -0.10716068 -0.077753186 -0.21949741 0.6316318 0.254135
-0.15588954 -0.285558 -0.09526122 0.08434922 -0.4373572 -0.39393982 0.5731876 0.08903476
0.21449077 0.010725215 -0.062895656 -0.07755596 -0.6146493 -0.077641375 0.2674475 -0.49095884
0.2161947 -0.063226245 0.09530325 -0.091298185 -0.04520575 -0.5414866 0.19281104 -0.2539664
-1.1712111 -0.04354293 -0.18687785 -0.27750057 -0.13613996 -0.011803159 -0.19409516 -0.34915832
-1.2685201 -0.043004066 0.32614267 -0.043138877 -0.06954041 0.024047358 -0.37797284 0.008028658
0.19843258 -0.18575604 0.31858933 0.3552671 -0.24454528 0.20685863 -0.83998805 0.01799723
-0.039803106 0.0906114 0.05154066 -0.012208876 -0.14467877 -0.3421206 0.14071254 -0.5582964
00000000: b694 dd3d 3e5b 323d ad7f efbd 2407 963c
00000010: d43f 19bd 1135 c8bd 43f9 e9bd 4d80 b6bd
00000020: 9cdd 97bc 978f d23b bca8 9c3c b4d7 13bd
00000030: 62ff d0bb 64aa adbc f29a 93bd c16c cabd
00000040: 44ee c33c 2d31 fdbc 8e79 033d aa3b babd
00000050: 5cef 8bbc d226 a1bd 1ad4 7dbd d9bf dcbd
00000060: f9a6 d93d fd80 883d 4998 9f3d 0507 8b3a
00000070: fe1c 3c3d c6eb 8e3d e0b5 8e3b a032 81bd
00000080: 6479 b5bc 99c5 d83d 7210 9ebd 3de6 3abd
00000090: bc64 5abd bf02 3b3d 82fe 273d a0ae 0b3b
000000a0: 7c72 93bc 0061 e4b9 ec00 a8bd c1a1 ad3d
000000b0: dce4 debd 5586 c23d 5d2f c6bd d298 c7bd
000000c0: c453 10bd d86a e83d 5baf 083d 7c02 e43d
000000d0: b2c2 163d d411 d0bd 9451 ea3d 16b5 313d
000000e0: 4e2e 1cbc 12d3 8ebd 6d51 be3d b57f 84bd
000000f0: 65c8 12bd 9487 9cbd b40e f0bd 746a 23bd
00000100: 9176 e8bd f8f5 bebd f584 9d3d 88d6 2ebd
00000110: cda7 993d 748b eebd b575 cd3d 595e c2bd
00000120: d466 efbd 4695 dfbd 4cb8 ca3c 7c6a c83c
00000130: 4110 b63d d2cd 763d 97a3 8fbd e249 88bc
00000140: 2534 0ebd 08b5 5abd f0f1 8ebd 0d0f 983d
00000150: 2816 65bb ae87 393d a8c8 03be 166e afbd
00000160: c873 e6bd 7e69 63bd 4355 4d3d c323 d43d
00000170: aae7 e8bd fa4e 333d 76d4 6bbd 5552 d53d
00000180: 74df 573c 8c54 ad3d d4aa c03d d4e8 87bd
00000190: a9d9 f03d 739c 9c3d 3bea c03d f5b0 eb3d
000001a0: b87d 1c3c 7945 b0bd 377d aabd 9494 8f3c
000001b0: bedd e93c 00d2 013d 49eb 20bd 16e7 173c
000001c0: 935e b73d be32 c9bd 88be 9c3c 0ab5 1abd
000001d0: c685 e3bc df31 74bd b030 aebd aebb a23c
000001e0: d5ef 263d 19c1 bbbd 6019 383d 7093 4d3d
000001f0: 863b dcbd f2bc 92bd 69d1 ef3d 1eee 94bd
00000200: 7fe3 d3bd 5df2 fa3c eb15 153d 1a5c 4a3d
00000210: 9aff 1e3d 5297 03bd 2483 a3bd faf7 d3bd
00000220: d1af 0d3b f6aa b53d 8019 acba 77ff cc3d
00000230: 8be1 913d f666 94bd 0284 d73d 3bb0 3d3d
00000240: 3559 a23e 379b 01bf 94e7 c5be dfed 383d
00000250: 20ed b8bc bed9 f4be 096b e33d 7b81 85be
00000260: 49dd 023e e970 3a3e f58f f93d 7389 dcbc
00000270: d414 6539 3ea2 d3bc 8d20 d8be c4a6 0c3d
00000280: f967 023e 1616 abbe 1df0 0c3d 5ae3 003e
00000290: 68dc 8abd bbe1 973d 9a18 fb3e 6965 1f3e
000002a0: f4c8 19bd 4b45 7e3e 3c64 b53d cb8e 3bbf
000002b0: 4210 34be ab49 eebc 92e6 60be 8b01 30bd
000002c0: 3432 723e f4bd 813f 573d 00be b4d4 85bf
000002d0: c64d 393e 3e65 07be 43f1 913d 9157 c0bc
000002e0: db76 b4bd ba53 b7bc c202 c3bd d059 82be
000002f0: 9660 b33e 9d92 373f 5a84 b13d c638 4ebf
00000300: ed34 0bbd 5d90 a83d 3843 56be 0f77 dbbd
00000310: 103d 9fbd eec3 60be 9fb2 213f fc1d 823e
00000320: 82a1 1fbe a834 92be 5118 c3bd 49bf ac3d
00000330: 48ed dfbe 7bb2 c9be 6cbc 123f db57 b63d
00000340: 78a3 5b3e d0b8 2f3c 70cf 80bd a9d5 9ebd
00000350: a859 1dbf 7102 9fbd e1ee 883e f55e fbbe
00000360: 2562 5d3e c37c 81bd 5a2e c33d 8bfa babd
00000370: aa29 39bd de9e 0abf 4270 453e e207 82be
00000380: 3fea 95bf 125a 32bd e85c 3fbe 8e14 8ebe
00000390: 4668 0bbe 0962 41bc e2c0 46be e1c4 b2be
000003a0: de5e a2bf 0825 30bd 2cfc a63e 64b2 30bd
000003b0: 346b 8ebd f7fe c43c a885 c1be a28a 033c
000003c0: e931 4b3e d536 3ebe 241e a33e 92e5 b53e
000003d0: 146a 7abe c0d2 533e 7509 57bf ed6e 933c
000003e0: 9508 23bd 7892 b93d 4d1c 533d bd07 48bc
000003f0: ac26 14be 6e2a afbe f316 103e 83ec 0ebf

t_conv1.bias f4 [16]
1.1940036 0.76042795 -1.0421644 1.4200778 0.66185033 -1.7099725 2.5638638 -0.4430606
0.80946267 0.20053093 1.3516047 -0.05894275 0.175238 0.36583257 0.9218838 0.19374256
00000000: 1cd5 983f 68ab 423f a565 85bf 1cc5 b53f
00000010: 066f 293f 61e0 dabf 5816 2440 d7d8 e2be
00000020: f238 4f3f fb57 4d3e 6201 ad3f f46d 71bd
00000030: 9771 333e 684e bb3e 9400 6c3f 7364 463e

t_conv2.weight f4 [16, 32, 2, 2]
0.12590508 0.007543371 -0.22469828 0.27517664 0.12142867 -0.55291945 -0.058761764 -0.26867145
0.4008205 -0.14998552 -0.36385491 -0.16455913 -0.1332632 -0.0073030167 0.03608617 0.4366933
0.118105225 0.14505115 0.42425779 -0.21725003 0.034565803 -0.1924155 0.09265081 0.19224803
-0.21191472 0.21839333 0.09728347 0.27321813 0.043979537 -0.26456016 0.38344148 0.11789494
-0.102224626 0.29655743 0.09438252 0.47518817 0.34185523 -0.6433224 -0.070521034 -0.54402673
0.15423982 0.1959201 0.17882526 0.1436404 -0.13401161 -0.10331398 -0.37019318 0.065808736
-0.61757255 -0.5201155 0.07316341 -0.012789747 -0.25966904 0.064269595 -0.41766754 -0.008639581
-0.02194487 -0.085225396 0.12515931 -0.11188781 -0.0040763556 -0.002592818 -0.037583698 -0.22838718
0.2487617 0.004889021 0.0006911594 -0.10287713 -0.19173855 0.29862767 -0.0058723562 0.070808455
-0.08962908 -0.065655686 0.08719987 0.22438954 0.15635413 0.089401096 0.27837923 -0.24186784
-0.2655443 -0.5088717 0.29468796 0.41328517 -0.18383266 -0.18971 0.22431673 0.1461446
0.1791476 -0.09755214 -0.25488093 0.35792926 -0.23054856 0.25040975 -0.24573122 -0.06595458
0.27810076 -0.11136656 -0.030552248 -0.25280946 -0.10332199 0.018663138 0.20615678 0.040648717
0.4944067 0.022849785 -0.6884057 -0.6380717 0.11098169 0.0012366712 0.009614957 0.05361447
0.31450883 0.0062710466 0.033603333 0.074421845 -0.08529367 0.13111065 0.4413958 0.16103189
0.08652763 -0.23889771 0.32561913 -0.17887448 0.310395 -0.28436688 -0.016232166 -0.1868423
-0.6112089 -0.35993588 0.3175247 0.06518643 -0.15186737 -0.2128198 -0.9658428 -0.11707876
-0.28298652 0.07494957 0.13035864 0.11688308 0.4316174 -0.10034757 0.21125287 0.17068021
0.6332088 0.058655843 0.19907711 -0.20489171 -0.5698876 0.059778694 0.39727953 0.16515537
-0.123431146 0.21898738 -1.7147517 0.5529774 0.25846693 0.12857355 0.30507356 -0.38595173
-0.1051932 -0.15330766 0.28977942 0.015708614 -0.3302501 0.32660916 0.13405469 0.10368446
0.42587197 0.26989824 0.69636595 -0.1213899 0.39798784 -0.046295084 -0.4507665 -0.1184821
0.30059585 0.023968475 0.094891734 0.06857533 -0.5183133 -0.3422859 0.09238329 0.26177126
-0.32361373 0.2624222 -0.10437588 -0.1817837 0.30283394 0.21676636 -0.72200525 0.1288551
-0.53857857 -0.007247072 -0.036259163 -0.047151405 0.044086054 0.13955477 -0.023391962 -0.014444474
0.2750694 0.02337916 -0.24596786 0.24865311 -0.07608002 0.22458859 0.006842475 0.13392106
-0.28103906 0.1314315 0.06242865 0.16143994 0.19612913 0.025275901 -0.06285484 -0.035390384
0.18090342 0.5982568 -0.15227036 -0.056079987 -0.27458343 -0.06482955 -0.16689968 -0.07690231
0.10353005 -0.42790198 0.6287619 -0.28688926 -0.31763515 -0.026340693 0.05591608 0.20020941
0.58702004 -0.025310967 0.35056314 -0.061270088 -0.0506372 -0.057929467 -0.3395704 -0.064587414
0.24230355 0.21074876 -0.36583096 0.01588913 0.3149975 0.03735065 0.38754013 0.16394381
0.3341987 0.053076282 -0.14259668 -0.46376824 -0.19286408 -0.006253563 -0.3348866 -0.18421282
00000000: 43ed 003e 622e f73b 4e17 66be f4e3 8c3e
00000010: 98af f83d 218c 0dbf 2db0 70bd 4e8f 89be
00000020: 5838 cd3e ce95 19be 314b babe 3082 28be
00000030: 2676 08be 254e efbb 17cf 133d 4496 df3e
00000040: 27e1 f13d 4a88 143e 5138 d93e cb76 5ebe
00000050: df94 0d3d 9208 45be b5bf bd3d abdc 443e
00000060: 2c00 59be 80a2 5f3e 8e3c c73d 3fe3 8b3e
00000070: e323 343d 6e74 87be 7152 c43e e772 f13d
00000080: 255b d1bd 60d6 973e 9f4b c13d dd4b f33e
00000090: a607 af3e c7b0 24bf 556d 90bd 5645 0bbf
000000a0: 0bf1 1d3e 479f 483e f81d 373e 7816 133e
000000b0: 573a 09be 4896 d3bd f689 bdbe bbc6 863d
000000c0: 3c19 1ebf 4a26 05bf b3d6 953d 168c 51bc
000000d0: 57f3 84be c79f 833d 85d8 d5be 078d 0dbc
000000e0: bac5 b3bc a78a aebd c329 003e 7025 e5bd
000000f0: f392 85bb 45ec 29bb 5df1 19bd 54de 69be
00000100: 63bb 7e3e 1534 a03b ec2e 353a 3fb1 d2bd
00000110: 1c57 44be bae5 983e e56c c0bb 0604 913d
00000120: 738f b7bd 7d76 86bd d895 b23d 5fc6 653e
00000130: 4c1b 203e ec17 b73d b987 8e3e 34ac 77be
00000140: 6cf5 87be 6a45 02bf 57e1 963e 1d9a d33e
00000150: a13e 3cbe 5743 42be 49b3 653e eea6 153e
00000160: 7872 373e 6bc9 c7bd c17f 82be 8142 b73e
00000170: ec14 6cbe b535 803e f7a0 7bbe 3213 87bd
00000180: 3963 8e3e 2714 e4bd b548 fabc 3e70 81be
00000190: 7b9a d3bd 70e3 983c c31a 533e 457f 263d
000001a0: e022 fd3e 792f bb3c 5b3b 30bf ab58 23bf
000001b0: 5e4a e33d cd17 a23a 0d88 1d3c d99a 5b3d
000001c0: 4d07 a13e 5a7d cd3b a6a3 093d 7b6a 983d
000001d0: 73ae aebd df41 063e a1fe e13e 8be5 243e
000001e0: 6635 b13d 9aa1 74be 8db7 a63e df2a 37be
000001f0: 18ec 9e3e 8998 91be 52f9 84bc 9753 3fbe
00000200: 3078 1cbf 8449 b8be 9992 a23e 7780 853d
00000210: 1f83 1bbe 6fed 59be 7941 77bf fdc6 efbd
00000220: 9ce3 90be 297f 993d bc7c 053e 6560 ef3d
00000230: f5fc dc3e 0783 cdbd ac52 583e cbc6 2e3e
00000240: f919 223f 1c41 703d dfda 4b3e 22cf 51be
00000250: 27e4 11bf 81da 743d 3968 cb3e 7d1e 293e
00000260: 78c9 fcbd 3a3e 603e fc7c dbbf ed8f 0d3f
00000270: c755 843e c9a8 033e 9a32 9c3e 779b c5be
00000280: 886f d7bd affc 1cbe f85d 943e 5aaf 803c
00000290: 8b16 a9be 5139 a73e a245 093e 8558 d43d
000002a0: e40b da3e 1a30 8a3e 0a45 323f 459b f8bd
000002b0: 10c5 cb3e ea9f 3dbd deca e6be bea6 f2bd
000002c0: b3e7 993e 8959 c43c 9956 c23d 3971 8c3d
000002d0: 2eb0 04bf 1940 afbe 7333 bd3d e206 863e
000002e0: b3b0 a5be 345c 863e 05c3 d5bd 8225 3abe
000002f0: 0d0d 9b3e 00f8 5d3e 56d5 38bf 97f2 033e
00000300: 49e0 09bf d978 edbb 7d84 14bd d521 41bd
00000310: 9493 343d 72e7 0e3e 80a0 bfbc 84a8 6cbc
00000320: e5d5 8c3e a785 bf3c 00df 7bbe ec9e 7e3e
00000330: d7cf 9bbd 8dfa 653e d736 e03b 9a22 093e
00000340: 5ae4 8fbe fb95 063e 2fb5 7f3d 8350 253e
00000350: 13d6 483e 680f cf3c 0aba 80bd 82f5 10bd
00000360: bf3e 393e 5c27 193f c3ec 1bbe 21b4 65bd
00000370: 3396 8cbe 5bc5 84bd c0e7 2abe f57e 9dbd
00000380: 9007 d43d f815 dbbe 8af6 203f 26e3 92be
00000390: 13a1 a2be 70c8 d7bc 4208 653d b203 4d3e
000003a0: f246 163f f258 cfbc 037d b33e 58f6 7abd
000003b0: f468 4fbd 7347 6dbd 2cdc adbe 6846 84bd
000003c0: 6c1e 783e 86ce 573e 324e bbbe ec29 823c
000003d0: 5a47 a13e fffc 183d a96b c63e e3e0 273e
000003e0: 181c ab3e 8466 593d dd04 12be 0873 edbe
000003f0: 297e 45be b0ea ccbb 4276 abbe 49a2 3cbe

t_conv2.bias f4 [32]
-0.45078638 -0.08972867 1.2443081 0.46337774 -0.793677 -0.83379877 -0.030427316 -0.34622052
0.09525351 0.93216634 -1.3211831 -0.96800977 1.1409498 -0.4328064 0.045122605 -0.007788697
-1.9618528 0.36221895 -1.0701034 -0.50379795 -0.053590607 -0.554788 -0.56735104 1.1741675
0.50304645 -0.87919015 -0.43781286 -0.94508064 0.76850754 -0.48570058 -0.16837722 -0.3052115
00000000: 79cd e6be aac3 b7bd 7d45 9f3f d93f ed3e
00000010: 6a2e 4bbf d673 55bf b542 f9bc d143 b1be
00000020: 4614 c33d 74a2 6e3f 871c a9bf 7dcf 77bf
00000030: a50a 923f cd98 ddbe 7bd2 383d 5338 ffbb
00000040: fe1d fbbf c374 b93e 26f9 88bf e7f8 00bf
00000050: d381 5bbd 9606 0ebf eb3d 11bf 1f4b 963f
00000060: a7c7 003f 9b12 61bf 0229 e0be cef0 71bf
00000070: e9bc 443f bfad f8be 146b 2cbe af44 9cbe

t_conv3.weight f4 [32, 1, 2, 2]
-0.3469232 -0.3165381 -0.49581504 -0.34669644 0.24496654 -0.07884436 0.009171303 -0.4138464
0.67861205 0.6689599 0.5190975 0.4484669 -0.6687147 -0.1462698 -0.6015776 -0.053540815
0.25250864 0.38157034 -0.33418062 -0.24377295 -0.20742147 -0.4457394 0.122828305 -0.13451268
-0.12984054 0.23489201 -0.3314719 0.07846777 -0.25905132 0.24470797 -0.30298603 0.12448236
0.55190355 0.42296124 0.09493671 -0.03316315 0.45160198 0.54558605 0.25490293 0.2568237
-0.5418035 -0.56739545 -0.41854838 -0.3787209 -0.1681581 -0.55832326 -0.17002134 -0.5407084
0.42868432 0.4698442 0.493516 0.48119324 -0.48129427 -0.30106825 -0.16322824 -0.026431492
-0.27628124 -0.47485054 0.08095153 -0.1636063 -0.33921507 -0.40489358 0.123762496 0.21338436
-0.7096623 -0.68582267 -0.7454373 -0.6584984 0.3232301 0.23609576 0.41240332 0.40746093
-0.07740227 -0.49312147 -0.4874563 -0.82405823 -0.084739156 -0.24851635 -0.55267 -0.45595133
0.09032119 -0.5168773 -0.020922782 -0.6084184 -0.78179884 -0.18420556 -0.49269623 0.22705969
-0.38484347 0.0023548058 -0.49370152 -0.07504229 0.48861703 0.45270297 0.52495265 0.45853975
-0.31878892 -0.09244778 0.1851929 0.38821056 -0.49077082 -0.058665566 -0.3354262 0.05963045
-0.16076358 -0.17205296 -0.47433206 -0.4089237 -0.4067093 -0.31063828 -0.16787237 -0.4284307
0.47135544 0.3282178 0.5657201 0.42562088 -0.031190196 -0.32261652 -0.06912203 -0.48441124
0.04400848 -0.1872663 -0.30666426 -0.3606845 0.053815335 -0.033148523 0.40556905 0.32758355
00000000: eb9f b1be 4811 a2be 78db fdbe 3282 b1be
00000010: 82d8 7a3e 2779 a1bd 3c43 163c ade3 d3be
00000020: 85b9 2d3f f540 2b3f 93e3 043f 749d e53e
00000030: e330 2bbf c0c7 15be fd00 1abf 9d4d 5bbd
00000040: d048 813e 305d c33e b919 abbe 9e9f 79be
00000050: 4b66 54be f437 e4be 688d fb3d b1bd 09be
00000060: ebf4 04be 8887 703e afb6 a9be b6b3 a03d
00000070: 60a2 84be ba94 7a3e fc20 9bbe 9cf0 fe3d
00000080: 8d49 0d3f 608e d83e 2e6e c23d 15d6 07bd
00000090: 6038 e73e 87ab 0b3f a382 823e 657e 833e
000000a0: a2b3 0abf d440 11bf f94b d6be b5e7 c1be
000000b0: a331 2cbe 46ee 0ebf 131a 2ebe de6b 0abf
000000c0: 837c db3e 6b8f f03e 21ae fc3e f65e f63e
000000d0: 346c f6be 9e25 9abe 4e25 27be db86 d8bc
000000e0: bc74 8dbe 9c1f f3be eac9 a53d 6988 27be
000000f0: 99ad adbe 364e cfbe 3177 fd3d 6e81 5a3e
00000100: 6eac 35bf 1392 2fbf fbd4 3ebf 5a93 28bf
00000110: 6a7e a53e 16c3 713e 8726 d33e b89e d03e
00000120: 1585 9ebd 6b7a fcbe df93 f9be 7bf5 52bf
00000130: b98b adbd 127b 7ebe c87b 0dbf 7472 e9be
00000140: 51fa b83d 1252 04bf 4166 abbc 4fc1 1bbf
00000150: f823 48bf 62a0 3cbe ae42 fcbe 5682 683e
00000160: 340a c5be 1653 1a3b 72c6 fcbe c6af 99bd
00000170: 032c fa3e afc8 e73e 4c63 063f b9c5 ea3e
00000180: 4d38 a3be 4355 bdbd 35a3 3d3e 89c3 c63e
00000190: 5046 fbbe 4e4b 70bd fcbc abbe 0f3f 743d
000001a0: 359f 24be a72e 30be a7db f2be 725e d1be
000001b0: 343c d0be fb0b 9fbe bce6 2bbe 455b dbbe
000001c0: 8055 f13e 2a0c a83e 08d3 103f fbea d93e
000001d0: 9582 ffbc fe2d a5be da8f 8dbd c004 f8be
000001e0: 3c42 343d bdc2 3fbe 1903 9dbe a4ab b8be
000001f0: 786d 5c3d bfc6 07bd bfa6 cf3e 08b9 a73e
